final.pth (torch, 436299 bytes, 24 tensors)

layer1.0.weight f4 [32, 3, 3, 3]
000000 6b 61 1b 3d 16 a4 94 bd 2c 16 7d 3d 0a 62 0d 3e
       0.037934702 -0.072578594 0.061788723 0.1380693
000010 37 0d a5 bc 3e cb b5 bd f7 7a f1 3d d9 2c 33 bb
       -0.020147903 -0.08876656 0.11791032 -0.0027339964
000020 be 76 34 bd a1 14 be 3c 2d b7 22 be 50 ba 50 3d
       -0.044058554 0.023203196 -0.15890189 0.05095893
000030 5d fd b1 3d 1e 7b 8e bd 8e d1 ab 3c 98 1a a3 3d
       0.08690903 -0.069570765 0.020973947 0.07964057
000040 1f 3d bf 3d 19 60 0e bd 84 ae 17 be 51 23 46 3d
       0.0933783 -0.034759615 -0.14812666 0.048373524
000050 89 2b 86 bd f8 1b b8 bc 7f 9f 68 be 21 e4 6c bd
       -0.065512724 -0.022474274 -0.22717093 -0.05783475
000060 01 43 04 3e 4c f8 d8 3d d5 b8 8f 3c 12 1a 88 3d
       0.12916185 0.10594234 0.01754419 0.066455975
000070 11 83 b0 3c 7f 33 80 bd 7e ae ec 3c 71 07 03 3e
       0.021546872 -0.06259822 0.028891798 0.12795807
000080 4c c5 3b bd 59 6f 17 bc 45 9b e0 3d 01 ef ef 3d
       -0.045842454 -0.009242856 0.10967115 0.11715508
000090 89 7e 6b 3d 55 fa c1 3d 1f aa 61 3c 13 09 65 bc
       0.05749372 0.09471575 0.01377347 -0.013979214
0000a0 ef cc 0e 3d 13 da 12 be 8f 15 6e bd 73 99 40 3d
       0.03486341 -0.14341001 -0.05812603 0.04702134
0000b0 fd b1 94 bd 52 b4 cd 3d 4e ea 40 bc 5f fa 29 bd
       -0.07260511 0.10044159 -0.011774613 -0.041498538
0000c0 d8 0a 0f bd a6 f5 85 bd 81 d5 54 3c 75 3d 54 be
       -0.03492245 -0.06540994 0.012990356 -0.20726569
0000d0 71 54 b7 3d b9 63 e8 3d d6 2a 5a bd 5e b1 8c 3d
       0.08951653 0.113471456 -0.053263508 0.068697676
0000e0 a0 31 c1 bd a3 05 db 3b 1a 1f 57 bd 61 79 24 bd
       -0.09433293 0.0066840216 -0.052519895 -0.04015482
0000f0 62 00 af 3d 97 5d 3e bd da bc 0e be fa 15 cc bd
       0.08544995 -0.046475973 -0.13939229 -0.09965129
000100 24 a0 3b 3d 94 cf 2c be 9a ea 89 3d c2 b9 26 3e
       0.04580702 -0.1687606 0.067342 0.16281798
000110 3d 25 f9 bd 07 e5 4e 3d 84 88 0b 3d a9 8e 35 be
       -0.12165306 0.050511386 0.03406574 -0.17730202
000120 55 de 89 3c ea 51 99 bb e6 98 a7 bc 1b 16 04 3e
       0.016829649 -0.0046789544 -0.02045865 0.12899058
000130 a4 d1 ad 3d fe 97 9a bd 3c 2b a7 3d f3 b4 af 3d
       0.084872514 -0.075485215 0.08162543 0.08579435
000140 79 28 28 be 2b c4 b7 bd 0a 55 42 bd 8b 29 40 3e
       -0.16421689 -0.08972963 -0.04744438 0.18765847
000150 3a 0c 4b be 9d d3 97 3c ca 01 f9 bb 0d 36 9b 3d
       -0.19828883 0.018533522 -0.00759909 0.07578669
000160 37 5b a8 3d 29 3c 31 bc bd 2d 02 be 06 e2 ba bc
       0.08220523 -0.010817566 -0.1271276 -0.022812854
000170 65 10 6f bc 87 64 07 be 24 ce a8 3c 2a 78 5b 3e
       -0.014591311 -0.13221942 0.020606108 0.21432558
000180 fb 37 2a be c3 fc df 3d 43 13 23 3e 13 95 11 be
       -0.16622917 0.10936882 0.15925317 -0.14217024
000190 3d 0a e9 bc f8 5a 0b 3e d0 83 84 bc aa 3b 19 3c
       -0.028447265 0.1360892 -0.016176134 0.009352604
0001a0 36 e8 69 3d 6f 65 ba bd 7d be a8 3b f2 47 10 3d
       0.05710622 -0.09101378 0.005149661 0.035224862
0001b0 75 04 e9 39 93 64 0d 3d bf 44 10 3e e1 de 14 be
       0.00044444544 0.034519743 0.14088725 -0.14538147
0001c0 bb 73 bb bd d0 22 2e 3d e3 03 a3 3d 3b ab 84 3c
       -0.09152933 0.04251367 0.07959726 0.01619493
0001d0 fa 6d 0b 3c d0 ab c7 bb 54 a9 d2 3d d7 1a 1e 3d
       0.008510107 -0.0060934797 0.10286203 0.038599815
0001e0 42 ed a6 3c 32 0c c8 bd a8 7b 2f be 5e b6 63 bd
       0.020376805 -0.09767951 -0.17137015 -0.05559384
0001f0 e0 c8 cc bd a3 20 0d 3e d4 e8 a0 3d 38 48 14 3e
       -0.09999251 0.13781981 0.078569084 0.14480674
000200 76 4c 50 3d 6b 54 cf bb c4 17 4a be 1d ff b2 bd
       0.05085417 -0.006327202 -0.19735628 -0.08740065
000210 bd c2 77 3a fa 7d 30 3d a5 fa 7e 3d 27 65 7d 3d
       0.00094513205 0.04308889 0.062250752 0.061864045
000220 f2 ab 47 3d 6f 7f 13 3e 74 8c 95 3d e1 fc 07 3d
       0.048747964 0.14404081 0.0730218 0.03320015
000230 4d 99 85 bd d6 f6 f8 bd 3b 0c 94 bd e3 38 0c bd
       -0.065233804 -0.12156455 -0.07228895 -0.03423394
000240 a2 0b 8e 3b 05 f4 c5 3d e9 a6 86 3d e7 79 2c 3d
       0.004334883 0.09665684 0.06574804 0.042108443
000250 e9 dc 3f bc 9a 34 ec 3d 06 4c 2a be b9 c1 10 be
       -0.011710384 0.115334705 -0.16630563 -0.141364
000260 c4 10 67 bc 32 16 26 3d 6b d6 07 3e b1 16 fa 3d
       -0.014103118 0.04054851 0.13265388 0.12211359
000270 7b 83 95 bd 8f 74 93 bd e8 8c e9 bd 53 c7 08 3d
       -0.073004685 -0.07199966 -0.11403829 0.033393215
000280 b8 8d 52 be be c4 d7 3d ba 7d 61 bd 04 08 91 3c
       -0.20561874 0.105355725 -0.055051543 0.017704017
000290 4f 4d eb bd 45 b7 cf bd a9 34 18 3e fb fa de 3d
       -0.11489355 -0.10142378 0.14863838 0.108877145
0002a0 4f 27 d3 3d ce e0 e1 bd 74 e1 b7 3c 5d 77 12 3e
       0.10310232 -0.11029206 0.022446372 0.14303346
0002b0 18 b8 1e 3e af f9 fe 3d fc 85 f5 bc b9 3c 8e bd
       0.15499914 0.12449967 -0.029971115 -0.06945176
0002c0 bc e4 17 bd db ce 48 bd bb 9c 6e bc 07 7f 07 3e
       -0.037083372 -0.049025398 -0.014563735 0.13232051
0002d0 2d 4e a6 bd da 18 a7 3d 60 6f cf bd 0a e4 7c bd
       -0.081203796 0.08159037 -0.10128665 -0.061740912
0002e0 4c c4 fe bd fe 74 cf bd 66 5e b8 bd a4 0e 85 3d
       -0.124397844 -0.10129736 -0.0900238 0.06496933
0002f0 92 44 cc 3d 63 f6 99 3d 2b eb 30 3e f3 bd 7b 3d
       0.09974016 0.07517698 0.1727721 0.061460447
000300 d6 aa a6 bd f6 0e 29 bd 7a b3 c9 bd e7 0c 53 3e
       -0.08138053 -0.041274033 -0.098486856 0.2061039
000310 60 37 44 3e 8e ed b3 bd b5 ce 7f bc b0 51 d1 3c
       0.19161749 -0.08785544 -0.015613248 0.025551647
000320 18 60 27 3e fa da 8f 3d f6 5f 85 3d 2d 59 9c bc
       0.1634525 0.07024188 0.06512444 -0.019085491
000330 0a d0 ac 3d d9 66 27 3e b3 6e 5d be 31 54 05 be
       0.08438118 0.16347827 -0.2162426 -0.13020398
000340 06 a5 23 bd 89 78 00 3e bc 7f 24 3d 86 8d f1 bd
       -0.0399523 0.1254598 0.04016088 -0.117945716
000350 f4 84 49 be 67 de 86 bd 95 4c 2d bd a9 a9 30 be
       -0.19679624 -0.06585389 -0.042309362 -0.1725222
000360 47 5b d1 3d cc 97 ba bd b5 8d c7 bd f4 fc 00 bc
       0.10222488 -0.09110984 -0.09743825 -0.007872809
000370 c2 a6 fe 3d 33 2e 15 3e 18 0c 09 bd 9d f6 c4 3d
       0.1243415 0.14568405 -0.0334588 0.0961735
000380 e2 ef 06 3e aa ce 12 3e 9b 55 90 3c 9a db 2a 3c
       0.13177446 0.14336649 0.017618945 0.010428334
000390 0f 64 db bd c7 d2 e7 3d 8a ea e7 bd e0 2e f6 bd
       -0.10712444 0.113194995 -0.11324032 -0.120206594
0003a0 10 bf 77 bd 71 ec 9f 3d 7c b9 3d 3d 27 39 12 be
       -0.060484946 0.078087695 0.04631947 -0.14279614
0003b0 36 75 c0 bc d1 9d 46 be 86 7c 8c 3d c1 c1 15 be
       -0.02349339 -0.1939614 0.068596885 -0.14624692
0003c0 d5 c2 05 be 91 48 91 bc 83 4e 10 be cf cc 3f be
       -0.13062604 -0.017734798 -0.1409245 -0.18730472
0003d0 a1 3b 5d 3d 0a ca 92 bd 1d 34 57 3d 7a 74 b2 3d
       0.054011945 -0.07167442 0.052539933 0.087136224
0003e0 39 75 fe bd 04 c9 27 3e 68 1b 03 3e 11 34 10 3e
       -0.12424702 0.16385275 0.12803423 0.14082362
0003f0 19 78 0b bc 02 87 30 3d 88 a0 4e 3c 10 b8 5f 3c
       -0.00851252 0.043097503 0.012611516 0.013654724

layer1.0.bias f4 [32]
000000 ef 59 6b be 74 ee 14 be f6 05 84 bd 47 3e be bd
       -0.22983526 -0.14544088 -0.064464495 -0.09289222
000010 c7 fc ac be 95 4b 3f be 4a 05 30 be 84 36 5d be
       -0.33786604 -0.18681176 -0.17189518 -0.21602827
000020 c3 c8 d1 bd 8e f7 32 be 26 86 53 be 5b 93 04 bd
       -0.102433704 -0.17477247 -0.20656642 -0.03236709
000030 5a c7 79 be ed 5d 76 be ba 37 15 be f3 ac a9 bd
       -0.24392453 -0.24059267 -0.14572039 -0.082849406
000040 dd 5f 55 be b7 66 99 be 8f 7a e1 bd c5 ab c3 bd
       -0.2083735 -0.29961178 -0.11009704 -0.09554247
000050 32 b1 67 bd 0e 01 db bd e3 9d 40 be a1 ba 28 bd
       -0.05656547 -0.106935605 -0.18810229 -0.04119361
000060 29 84 31 be 9d f2 ff bd e4 b4 09 be 93 9b 64 bd
       -0.17335571 -0.12497447 -0.1344791 -0.05581243
000070 27 c8 5c bd 13 a6 4a bd 08 92 17 be f3 45 b8 bd
       -0.053901818 -0.049474787 -0.148018 -0.08997717

layer2.0.weight f4 [64, 32, 3, 3]
000000 39 db 9a 3d 69 c5 ca bd 76 af d0 bd bb 56 59 be
       0.07561345 -0.09900934 -0.101897165 -0.21224491
000010 08 d1 9c bc 69 7a ef bb 90 df a1 bd 2f 4e 8a bd
       -0.019142643 -0.0073082936 -0.07903969 -0.067531936
000020 e5 a5 14 bc 0a 94 68 3a 52 78 07 3b 75 ed be 3c
       -0.009072755 0.0008872157 0.0020671082 0.023306588
000030 2c de 97 bd 1d ec 6e 3d 11 e8 c3 3d e7 a7 27 be
       -0.07415423 0.058330644 0.095657475 -0.16372643
000040 80 2b 94 3c 47 17 95 bc ed 1f cb bd f6 43 8e bc
       0.018087149 -0.018199576 -0.09918199 -0.01736639
000050 06 01 89 bd ad 7a 55 bd dc 2e df 3b 52 87 95 bc
       -0.06689648 -0.052118946 0.006811006 -0.018253002
000060 6a 1c e9 bc fd 34 6c bc 2d 60 13 be 4b 4f 05 bd
       -0.028455932 -0.01441693 -0.14392157 -0.032546323
000070 93 e1 0d bc e9 cc ac bd 85 de f6 ba a4 70 46 3c
       -0.008659738 -0.08437521 -0.0018834627 0.012111817
000080 5c 54 9d bd b8 1e 34 3d 52 d9 84 bc 1c 83 06 3e
       -0.07682106 0.04397461 -0.016216908 0.13135952
000090 62 a9 39 3e 9e 32 dd 3c 7c fd 25 bd 24 bb 06 bc
       0.1813102 0.027001675 -0.040524945 -0.008223329
0000a0 b3 26 08 3d b8 a6 44 3d 70 97 a3 bc e6 c3 a6 bd
       0.03324003 0.048010558 -0.019969672 -0.081428334
0000b0 ce d5 19 3d c9 54 46 3e 61 3e 53 3e ff 3e 6b bb
       0.037557416 0.1936828 0.20629264 -0.0035895703
0000c0 fb 48 57 bd e4 78 9f bd 10 a7 46 bc 08 4d cc 3d
       -0.052559834 -0.0778673 -0.012124792 0.0997563
0000d0 21 9d df bc 68 da 1c 3d ec 19 97 3d d1 79 a8 bd
       -0.027296605 0.038294226 0.07377991 -0.0822636
0000e0 c4 0e 05 bd 30 83 e1 3d 70 97 c9 3d 9f ef 83 3d
       -0.032484785 0.1101135 0.098433375 0.064421885
0000f0 de 07 29 3d f0 0e 23 3e c1 bb 21 3e d2 c7 10 3e
       0.04126727 0.15923667 0.15794279 0.14138725
000100 94 6a fb bd 97 61 52 be 00 a4 18 be cf 7f d4 bd
       -0.122761875 -0.2054504 -0.14906311 -0.1037594
000110 9e 46 40 bd e1 ad 86 be 48 3a 2f be d7 7b de bc
       -0.046942346 -0.26304534 -0.17112076 -0.02715866
000120 29 66 ce bd 32 6f 83 3d 61 71 2d 3d 0b d4 d0 3d
       -0.10078079 0.06417693 0.042344455 0.10196694
000130 fd 30 2a b9 fb 18 07 be 50 31 c5 3b d3 e0 13 bc
       -0.00016230713 -0.13193123 0.0060178414 -0.00902577
000140 4a 1a 3e 3a c7 ca 11 3d bd 2e fd 3d 4c f9 31 3e
       0.0007251842 0.035593774 0.1236243 0.17380255
000150 87 84 15 bb 70 56 0d be 2b a1 9f 3c 54 47 17 be
       -0.0022814588 -0.13802505 0.01948603 -0.14773303
000160 b2 f7 a1 bd d6 26 fb bb 56 f2 8b bd 0e 6b 09 3c
       -0.07908572 -0.0076645417 -0.06833331 0.00838734
000170 0d cf 8a 3c 66 60 a1 bd 6b 1e 98 3c 49 40 6e 3d
       0.016944433 -0.07879715 0.018569192 0.058166776
000180 eb 61 19 bd b1 70 01 bd 59 9c 04 bd 84 cc 30 bc
       -0.037446897 -0.03160161 -0.032375667 -0.010790948
000190 c6 26 85 3d b2 16 62 3d cd 80 4c be a5 2a 9d bc
       0.06501536 0.055197425 -0.19971009 -0.019185374
0001a0 c0 e2 19 bd f3 1f 98 be 9e d9 ef bc 67 4e 77 bc
       -0.03756976 -0.29711875 -0.029278573 -0.015094376
0001b0 0a a6 8f 3e 81 48 34 3e 60 85 28 3d 13 ca 0b 3d
       0.28056365 0.17605783 0.04114282 0.03412826
0001c0 60 bd 36 be 8e ae 82 3d 9f 6b b1 bd 1b 8d ba 3c
       -0.17845678 0.0638095 -0.08663105 0.022772362
0001d0 bf e4 e6 bd c5 a8 7b bd 91 55 98 bd d3 94 1a be
       -0.112740986 -0.061440248 -0.074381955 -0.15095834
0001e0 ec 4e 81 bd 0b 81 07 3d 65 6d 45 3c 09 67 d7 bc
       -0.06313881 0.03308205 0.0120500075 -0.026294248
0001f0 9c 79 09 3d b8 c8 bd 3d 85 bb ce bd 1e bb 2b 3d
       0.03356324 0.092668 -0.1009436 0.041926496
000200 e1 48 87 3d 49 fc a8 bc fb aa a4 bd dd 5d 8f bd
       0.066056974 -0.020628111 -0.080404244 -0.07000325
000210 8d d2 e2 3c c0 46 66 3c 52 2b 21 be eb 17 9c be
       0.027688289 0.014054954 -0.15739182 -0.30486998
000220 ff ba d3 bd 8a 34 97 3c 92 39 35 3d 56 e0 a3 3c
       -0.10338401 0.01845767 0.044244356 0.020004433
000230 41 30 c6 bc b5 52 89 3d 50 95 78 bc 4b cc 15 3d
       -0.024192931 0.06705228 -0.015172318 0.036571782
000240 59 4d 1e bd 04 19 fc 3c b8 3d b9 3b a7 88 9e bd
       -0.038647983 0.030773647 0.0056531094 -0.07740908
000250 d6 d9 bc bc e7 8b be 3d 2a 0a 92 be 68 8c 0a be
       -0.023053091 0.09304028 -0.2852338 -0.13530123
000260 e7 93 68 bb 3e 32 62 bc 78 58 77 3d 1b 77 6b bd
       -0.0035488547 -0.013805924 0.060387105 -0.057486635
000270 73 08 5b bc 8f 78 ad bd 2d 78 21 3e 1c ad 2b be
       -0.013368714 -0.0847026 0.157685 -0.16765255
000280 80 4c 8d 3d cf f4 0c 3c 4b 54 2e 3e f9 7c 25 be
       0.06899357 0.008603289 0.17024343 -0.16160955
000290 01 ad 9d 3c 14 78 c4 3d 41 1e 1e 3c 14 42 32 3c
       0.019247534 0.095932156 0.009650768 0.010880012
0002a0 81 73 5e 3d 4c 55 1f 3e 6e df 14 3e b2 e9 9c be
       0.05430937 0.15559882 0.14538357 -0.30647045
0002b0 4c 8f c6 bd f1 d6 50 3c 29 ca 89 3d 86 dc 5c bc
       -0.096953005 0.0127465585 0.06728012 -0.013480311
0002c0 46 42 9a 3c ff bf 55 3c cd fb 83 3d 16 5f b2 3c
       0.01883043 0.013046264 0.064445116 0.021773856
0002d0 8e fc 31 3e f3 7b 14 3d c5 1b 17 be df a6 3c 3e
       0.17381498 0.03625102 -0.14756687 0.18423031
0002e0 03 8f cd 3d 0e 09 c4 3c 24 25 d3 3d 65 b6 91 3d
       0.10037043 0.023930099 0.103098184 0.07114867
0002f0 f2 ec 03 3d 55 de 14 3e dc 90 64 bd 89 e8 99 bd
       0.03220839 0.14537938 -0.05580221 -0.07515056
000300 c7 21 69 3c 47 fe b1 3d f6 ef 00 bc 67 0a 53 bd
       0.014229245 0.08691078 -0.007869711 -0.051523592
000310 85 92 d6 bc e0 3a 73 bc d6 13 88 bd 33 cc 5d bd
       -0.026192913 -0.01484558 -0.066444084 -0.054149818
000320 00 27 0a 3d 72 1c 9b bd be bf 24 3d 26 cf 52 bc
       0.0337286 -0.07573785 0.040221922 -0.012866771
000330 3a 29 f4 bd 5a 5d 15 be c8 3c 14 bd d6 54 0d bc
       -0.11921926 -0.14586392 -0.036190778 -0.0086261835
000340 3b fb b1 bd 47 da c8 3d 30 9a 59 3d 91 22 56 3d
       -0.086904965 0.09807258 0.05312556 0.05227906
000350 38 b5 d3 3c b4 4f 62 3e e6 48 ab 3d 1b 08 72 3d
       0.025843248 0.22100717 0.08363514 0.05908976
000360 73 85 d4 3d 15 31 db bb 70 c5 0b be ec 90 70 3d
       0.10377016 -0.0066892006 -0.13649535 0.05873196
000370 08 ff d3 3d fa 1e 5b 3d 25 6e 49 3d 70 10 8b bd
       0.10351378 0.05349634 0.049177308 -0.067902446
000380 8d ed b5 3d 7e 25 2b 3d 82 44 2c bd 59 61 d4 bd
       0.088832 0.041783802 -0.04205752 -0.1037013
000390 22 a5 09 be 8a 62 14 bd ca 9e 2e bd d4 45 24 bd
       -0.134419 -0.036226787 -0.0426319 -0.040105656
0003a0 99 7f 8c bc 5b 6e 4c 3e 59 25 f2 bd a5 ef 04 3d
       -0.017150687 0.19963972 -0.1182353 0.032455105
0003b0 69 4f 3a be 93 cd 50 bd 5e 51 bb bc bf 3c 21 be
       -0.18194355 -0.0509773 -0.022865947 -0.15745829
0003c0 80 c1 a1 3c 15 61 9f bd 0b b3 d0 bd 70 ed 9c be
       0.019745588 -0.07782189 -0.101904 -0.306499
0003d0 5f 79 87 3c 2a 63 9e 3c cf 9a f3 3c 4d fb 5e bb
       0.016537366 0.019334394 0.029736904 -0.0034024299
0003e0 e5 f4 ba 3c d8 12 e8 3d 52 ae 8a 3b 1a f7 9d bd
       0.022821853 0.11331719 0.0042322064 -0.077131465
0003f0 3e bd d4 bd a9 7d ab 3d 11 d8 02 3d 86 72 bd b9
       -0.103876576 0.08373577 0.03194434 -0.00036134216

layer2.0.bias f4 [64]
000000 b8 34 00 3d 9d f6 95 bd ed 76 35 bd 43 73 b1 ba
       0.031300277 -0.073224284 -0.04430287 -0.0013538379
000010 85 be e1 bb 7e bf b2 bd 46 6c 33 bd 8b 3b 93 bb
       -0.006889167 -0.087279305 -0.04380443 -0.004493182
000020 d6 9e ec bc 0c 58 fb bc 5b 31 7d ba ba 15 66 3a
       -0.028884333 -0.030681632 -0.00096585386 0.0008777041
000030 e1 12 86 bd 9f 82 b1 bc f8 5a 8f bc bf 84 d1 bc
       -0.065465696 -0.02166873 -0.017499432 -0.025575994
000040 95 e2 0e 3c 48 ce 16 bc 27 c4 ac 3c 5b 34 a2 bc
       0.008721014 -0.009204455 0.021089626 -0.019800356
000050 f2 2d 65 bc 24 5c 17 bd de a7 ab bc f3 b3 36 3c
       -0.013988005 -0.036953107 -0.020954069 0.011151302
000060 00 2a 93 bd 4c 81 30 bc 4b 41 69 3d bc 0f 8e bd
       -0.07185745 -0.010773014 0.056947034 -0.06936595
000070 49 4b 07 3c c3 8c 40 3c ac e0 a7 bd 83 8e 78 bd
       0.0082576955 0.01175231 -0.0819715 -0.060682785
000080 88 16 01 bd 78 47 a1 3c 66 cd 64 bc 61 60 b4 bc
       -0.031515628 0.0196874 -0.013964986 -0.022018613
000090 4b 02 9b bd 69 d9 e2 bc 34 70 3b 3d b5 55 31 bd
       -0.07568797 -0.02769156 0.045761302 -0.043294627
0000a0 23 99 72 3c 27 aa 92 bd 5c 9a 84 3c e6 5c 35 3c
       0.014807018 -0.0716136 0.016186886 0.011069512
0000b0 a8 6e 20 bd 75 4d 1b 3d 3b 8e 55 bd 4b 1e 4a bd
       -0.03916803 0.037915666 -0.052137595 -0.049345296
0000c0 ef 1c e4 bb 20 15 55 bc 24 41 2f bd 8c 4e ac bd
       -0.006961457 -0.013005525 -0.042786732 -0.08413419
0000d0 b7 c7 be 3c ba 85 39 bd f9 7c 88 bc 3a 47 83 3c
       0.02328859 -0.045293547 -0.016661154 0.016025174
0000e0 50 51 6a bc 75 a4 d1 bc 5c b8 05 3b 69 97 a3 bc
       -0.014301613 -0.025591115 0.0020404076 -0.019969659
0000f0 0d b0 ed 3c 1f 89 54 bb ec e7 70 bd 25 16 30 bd
       0.029014612 -0.0032430363 -0.058814928 -0.04298987

layer3.0.weight f4 [64, 768]
000000 fb 8c 00 3e c0 39 48 3d 9e ba e9 3c ca 84 1c bc
       0.1255378 0.0488832 0.028531369 -0.009553144
000010 4d 4d 74 bc aa 34 55 bd de 56 ab bd 14 1d 25 be
       -0.014911008 -0.052052177 -0.08366178 -0.16124374
000020 e3 c0 8e bd 95 09 80 3d f3 70 f0 3d fe b1 4d 3e
       -0.06970384 0.062518276 0.11740293 0.2008743
000030 39 d8 9e bd 21 34 00 3d b5 44 fb bc 5b a3 41 bd
       -0.07756085 0.031299714 -0.03067241 -0.04727493
000040 5e 55 31 bd 41 65 9c 3d a3 73 dc bb 9f fc 48 bd
       -0.043294303 0.076365 -0.006727652 -0.049069043
000050 40 52 6e bc ab 1c 42 3d bd 1c 02 bd 5a 4b 41 3d
       -0.014545977 0.04739062 -0.03176569 0.047191
000060 e9 2d c9 bd ad fd 6c be 9f 0b e8 3d 18 8e a5 bd
       -0.0982321 -0.23143645 0.113303415 -0.08083743
000070 df d2 47 be 4d 42 18 3e 44 82 0b be 10 7e 17 be
       -0.19514035 0.14869042 -0.13623911 -0.14794183
000080 33 d0 c5 3c 06 7b d1 bc d5 d4 bf bd 14 a9 99 3d
       0.024147129 -0.025571357 -0.09366766 0.07502952
000090 f0 f5 72 bc f7 a5 83 bd c8 55 34 3d 63 93 c5 3d
       -0.014829144 -0.0642814 0.04402712 0.096472524
0000a0 d6 b0 0c 3e b3 6b 61 3d 98 1b f7 bd 4f 77 4e bd
       0.13739333 0.05503435 -0.1206581 -0.05040675
0000b0 39 e9 11 bd ef 1e 59 bd 4c 08 54 3d 34 b7 cc ba
       -0.03562281 -0.053008016 0.051765725 -0.0015618564
0000c0 69 f6 bb 3d 14 45 d6 3d 0e a0 fc 3c 2b a5 95 bc
       0.091778584 0.10462394 0.030838039 -0.018267235
0000d0 98 94 72 bc ff c7 99 3d e3 10 af 3d 04 04 f2 bd
       -0.014805935 0.07508849 0.08548143 -0.11817172
0000e0 9b f2 32 bd 0e 99 07 be bb 70 14 be 72 14 53 bc
       -0.043688398 -0.1324198 -0.14496128 -0.0128832925
0000f0 a1 00 f8 3d 27 bc 8b bd 97 38 be bc 16 52 4f 3e
       0.12109495 -0.068229966 -0.023220344 0.20246157
000100 7a bf 7e 3d 9e d4 d9 3d 34 d6 16 be 2f d1 21 3e
       0.062194325 0.10636257 -0.1473015 0.15802453
000110 34 1b 0a 3d 14 c6 c2 bd c2 91 03 be b0 90 ca 3d
       0.03371735 -0.09510437 -0.12848571 0.09890878
000120 cb 5e 57 be 16 c2 c8 bd 4f ce 9f bd 71 9d d5 3c
       -0.21032254 -0.09802644 -0.07803022 0.02607605
000130 f3 4f 4e be 26 ee 42 bd 75 b7 5c bd f6 5c 98 3d
       -0.20147686 -0.047590397 -0.053885896 0.07439606
000140 1c b4 db 3d e0 67 72 3d 4c b1 e7 b7 2b 45 65 3e
       0.107277125 0.059181094 -2.7619906e-05 0.22389667
000150 2b b1 78 bd cf 54 6b 3d 38 28 34 bd 11 37 d9 3d
       -0.060715836 0.057453927 -0.043983668 0.10606206
000160 d4 8b 97 bc d1 cc 84 3c 91 1c 1b be d6 60 48 bd
       -0.018499292 0.016210945 -0.15147616 -0.048920475
000170 79 3a 05 3d 50 76 03 3d dc 4f 40 3c 96 6c b8 3c
       0.032526467 0.032095253 0.01173779 0.022512715
000180 08 6d 5f 3d e2 77 d4 3b 4b 96 f6 3c f7 b1 18 bd
       0.05454734 0.0064840177 0.030100962 -0.037279096
000190 2a 8a fd bc f0 d2 70 3e 21 d3 60 bc f9 9b a7 bd
       -0.03094967 0.23517966 -0.013722212 -0.08184046
0001a0 12 cd 0c 3d f4 fe b0 3d 5b d6 5b 3b 19 91 fa 3d
       0.034375258 0.086423784 0.0033544514 0.122347064
0001b0 ac 2e 86 3c c0 f4 20 3d 07 ac 3d bd 85 f0 f2 3d
       0.016379677 0.03929591 -0.046306636 0.11862282
0001c0 f7 c1 ce 3d 0a 7a c4 bb fa 09 d7 bc f1 d0 b3 3d
       0.100955896 -0.0059959935 -0.026249874 0.08780087
0001d0 36 b0 7a 3c 5d 2c 53 bc 44 b3 1d be db 03 56 bd
       0.015300801 -0.012888995 -0.15400416 -0.05224977
0001e0 2c 18 ff 3c a2 f8 59 3c 6c 6a 41 bd bb a9 e6 bc
       0.031139456 0.013303908 -0.047220632 -0.028157106
0001f0 ff c2 c7 bd f0 8d 95 bd 28 a8 f9 bb 52 cd df 3d
       -0.097539894 -0.07302463 -0.0076189227 0.109278336
000200 49 f7 35 be a8 8f c6 3d af fd 23 bc 2b d5 d8 3d
       -0.17770113 0.09695369 -0.010009213 0.105875336
000210 ff 1d e4 bd 20 e5 b8 bd 03 c1 ed 3d 4f 34 83 bd
       -0.11138534 -0.09028077 0.1160908 -0.064064614
000220 6b 5f 3b bc 67 3d 60 bd e9 5e f4 3d 76 a4 d2 bc
       -0.011436324 -0.054746058 0.11932165 -0.025713187
000230 bd d8 3f 3e 7b d8 1b be ea fa 3a 3d 1d fb 4e bd
       0.18735023 -0.152193 0.045649447 -0.05053245
000240 19 11 42 bd 10 ab 63 bd dd 11 8d 3d e0 f3 c5 bd
       -0.047379587 -0.05558306 0.06888173 -0.09665656
000250 ff 81 94 bd 42 7d 50 3a bd 4c 2d 3d 54 88 1e 3e
       -0.07251357 0.0007953235 0.04230951 0.15481693
000260 48 01 90 be d1 ff 0d be 25 78 16 3d 2d a1 bd bd
       -0.28125978 -0.13867117 0.036735673 -0.092592575
000270 65 9b 00 bd 21 26 5c 3d 38 86 57 bd 11 b1 87 bd
       -0.031398196 0.0537473 -0.052618235 -0.066255696
000280 7e b2 57 bb 26 93 43 bd ee 9e a0 bd bd 9a b1 bd
       -0.0032912786 -0.047747754 -0.078428134 -0.08672092
000290 45 7e c4 bd c3 94 1b 3c 7c 50 33 bd af 5a 7c bd
       -0.095943965 0.009495917 -0.043777928 -0.06160992
0002a0 92 5a e3 3d 53 d3 17 3e c4 49 96 3c 9f 93 ad 3c
       0.11101259 0.14826708 0.018345721 0.021188555
0002b0 83 d2 25 3e b2 bf 99 bd 6d 9e cf bc 4a c8 1a bb
       0.16193585 -0.07507266 -0.025344098 -0.0023617917
0002c0 c1 a7 2f be 64 42 04 be 65 78 03 bd f9 04 9e be
       -0.17153837 -0.12915951 -0.03209724 -0.3086317
0002d0 c1 3f 86 3d 68 aa 17 3e 2e 61 10 be 8d 26 8e 3e
       0.06555129 0.14811099 -0.14099571 0.27763787
0002e0 1d df 26 3d 01 7a 96 3d df 3b a7 bd 81 2f 17 be
       0.04074012 0.07347489 -0.081657164 -0.14764215
0002f0 ab 3e fe bd 43 f0 5d be f1 29 95 be 52 6c 20 3e
       -0.12414297 -0.21673684 -0.2913356 0.15666321
000300 47 08 33 be 85 88 1f 3e 93 e0 30 bc a2 a2 b0 3c
       -0.17483626 0.15579422 -0.01079573 0.021561924
000310 ef cc 58 bb f1 c8 90 3d 3e 6e a3 bd b8 67 20 bd
       -0.0033081134 0.070695765 -0.079800114 -0.039161414
000320 76 57 5a bd cc 63 f7 3d 3f a0 e7 3d 68 05 fe bb
       -0.053306065 0.120795816 0.113098614 -0.0077521093
000330 08 bf 18 be 90 83 09 3e 02 c7 e6 3c e7 4e 05 be
       -0.14916623 0.13429093 0.028171066 -0.1301838
000340 f6 2d a1 3b 8d af d3 bb a8 16 a8 bd cd 23 ff bc
       0.004918809 -0.0064601363 -0.08207446 -0.031145
000350 6d 13 5e 3e da be 9d bd 17 81 14 be a7 8f 0b bd
       0.21687098 -0.07702418 -0.14502369 -0.034072544
000360 c6 60 c6 3c 89 a8 84 be 41 96 f3 bc bc f5 97 3c
       0.024216067 -0.25909832 -0.029734733 0.018549792
000370 c3 e8 8d be a1 ed a7 3c d1 13 5f 3d 26 ef ee bd
       -0.27716646 0.020499052 0.054462258 -0.11666708
000380 47 35 01 be ca 53 19 be 51 69 7a be 90 cb 10 be
       -0.1261798 -0.14973369 -0.24454238 -0.14140153
000390 4d 78 97 bd 1d 55 ea 3c ba 07 70 3b b6 40 0b 3e
       -0.073959924 0.028605038 0.00366257 0.13598904
0003a0 d3 53 91 bc e7 30 2f be 29 87 c3 3d f6 71 5a 3d
       -0.017740166 -0.17108499 0.09547264 0.053331338
0003b0 20 fa b9 bc d1 09 84 bc 53 1a f5 3d 7e bb aa 3d
       -0.022702277 -0.016117962 0.119679116 0.083365425
0003c0 21 31 f2 bd b6 df c1 3c fa 89 fc 3c 36 bb ca bc
       -0.11825777 0.023666244 0.030827511 -0.024747472
0003d0 ad 43 a0 3d bd ed d1 bd b1 30 31 3d 33 f4 84 be
       0.07825408 -0.10250423 0.043259326 -0.2596756
0003e0 dd 8f d3 bd 64 e6 74 bd aa 9f 08 3e 85 a5 21 ba
       -0.10330174 -0.05979003 0.13342157 -0.0006166327
0003f0 ab a9 49 3d 91 8d 6c 3e 16 80 0e bd 4f 96 5c bd
       0.049234074 0.23100878 -0.03479012 -0.053854283

layer3.0.bias f4 [64]
000000 42 28 cf bc 42 9e 46 3e 84 f5 48 3e 7b 1c 0e bd
       -0.025287751 0.19396308 0.19624907 -0.03469513
000010 25 05 2e bd 76 d9 9b bb 8f 18 9c 3d 72 1c 6b bc
       -0.042485375 -0.004756148 0.07621872 -0.014350044
000020 6f c1 67 bc d5 5d 2e bd 25 b1 47 3e f4 61 65 bd
       -0.014145239 -0.042569954 0.19501169 -0.05600162
000030 39 00 f7 3c 9b 3c 72 bd 30 88 8e bc 47 4f 3e bd
       0.030151473 -0.05913983 -0.017398924 -0.046462324
000040 7d 45 87 3d 12 e1 20 bd bd 61 45 bd 0e 83 0e bd
       0.06605051 -0.039277144 -0.048188914 -0.034792952
000050 80 95 02 bd 39 2c 43 3e 67 85 61 3e 07 d7 3e 3d
       -0.031880856 0.19059838 0.22023545 0.046591785
000060 74 84 71 bd e7 4b 6b bd db 76 a1 bb 93 0b e9 bb
       -0.058964208 -0.057445433 -0.0049274988 -0.0071119755
000070 4d 18 5d bc f9 ab 7b bc d2 8a 7d bd 25 fc f5 bc
       -0.013494563 -0.015360826 -0.061899967 -0.030027458
000080 b9 12 39 3d 66 4e e6 bc a6 a7 39 bc df 2d 51 bd
       0.04518387 -0.028113555 -0.011331474 -0.051069137
000090 92 04 b9 bc ca 54 63 bd d6 12 85 bd 4f 59 cd bc
       -0.022585187 -0.055500783 -0.06497733 -0.025067
0000a0 86 4d b4 bb 94 47 14 bd dc ad c9 3b a3 59 81 3a
       -0.0055024056 -0.036201075 0.006154759 0.0009868633
0000b0 58 c0 00 3c a7 45 08 bd 2f 5c 76 bd 61 4a 34 bd
       0.007858358 -0.03326955 -0.060146507 -0.044016246
0000c0 45 bb d4 bb 6b 7b 7e bb d0 ee 65 bc 40 1f 86 bc
       -0.006492051 -0.0038830887 -0.014033988 -0.016372323
0000d0 3c 44 bc bc 8f d2 c9 3b 3d 06 10 3d 7b f0 fb bd
       -0.022981755 0.0061591337 0.0351622 -0.123017274
0000e0 c9 df 0d 3e 01 4e a6 bc 30 f8 8d 3d 1a 70 33 3d
       0.13854899 -0.020300867 0.06932104 0.04380808
0000f0 c2 bf 11 bc 6b 7e 90 bd d0 c4 bd 39 0f 8c 3c bd
       -0.008895816 -0.07055362 0.00036195526 -0.046032008

layer4.weight_ih_l0 f4 [96, 64]
000000 73 99 6b be 47 30 1d be ce 58 cc 3c b7 6e ec 3e
       -0.23007755 -0.15350448 0.02494469 0.4617822
000010 ea c2 1a 3f d5 c4 99 3e b7 46 ec 3d 23 81 f1 3c
       0.60453665 0.30032983 0.11536925 0.029480522
000020 e8 de 24 3e 89 3e 45 3e 53 a3 78 3c ef 47 fc 3d
       0.16100657 0.19262137 0.015175658 0.12318408
000030 29 e1 b4 3d 48 68 95 be 47 de a1 be 75 ed 21 3e
       0.088320084 -0.29181123 -0.31614897 0.15813239
000040 73 8e a3 3e c4 9c 46 3e 0b 5d a8 3e e5 ab d9 3e
       0.31944618 0.19395739 0.32883486 0.42513958
000050 a5 d4 75 3d 5a b9 0f be 23 88 bd bd d9 50 43 bc
       0.060017247 -0.1403555 -0.09254482 -0.011921131
000060 8e 69 a9 3e f3 b7 c6 3d d9 f3 03 3f 18 dc 93 bc
       0.33088344 0.09703054 0.51543957 -0.018049285
000070 65 85 74 be b9 86 29 3e 79 52 9c 3e 86 49 b1 3d
       -0.23879011 0.16555299 0.30531672 0.086566016
000080 5c 47 18 3e 91 d2 c2 3e 60 6a d2 3d d9 40 92 be
       0.14870971 0.38051274 0.10274196 -0.285651
000090 0d 0a 20 3e d1 04 88 be 83 c6 8d 3e 6d a5 19 3e
       0.15628834 -0.26566175 0.27690515 0.15004511
0000a0 34 24 b8 3e a2 56 fe 3e ca 7c f6 3d 03 d0 bf bd
       0.3596512 0.4967547 0.120355204 -0.09365847
0000b0 59 c4 96 be 5a 05 14 bd 82 ec a6 3e 75 a8 dc 3e
       -0.29446676 -0.036137916 0.32602316 0.43097273
0000c0 00 83 78 be 8e 50 c9 3e eb ac 85 be c0 57 25 3e
       -0.24268723 0.3931927 -0.26108488 0.16146755
0000d0 eb 50 3e 3d 11 69 94 3d 04 3a 0d be f6 1a 99 3e
       0.04646389 0.07246602 -0.13791662 0.29903382
0000e0 5d c8 0a 3e ec 92 23 3f c5 9d 9c 3e df ea ae 3e
       0.13552995 0.6389606 0.3058912 0.34163567
0000f0 ac 04 c1 3e 25 32 ba 3e 57 78 b5 3d b6 42 76 3e
       0.37698877 0.36366382 0.08860844 0.24048886
000100 16 b8 85 be a0 ed 7b 3e 2e 67 0f 3b 9f c9 03 3e
       -0.2611701 0.24602365 0.0021881568 0.12869881
000110 48 3b 39 3e 46 14 4b 3d d6 77 ef 3c ce 8f 59 be
       0.1808902 0.04957988 0.029231947 -0.21246263
000120 d1 91 00 3d f0 f3 70 3e 5d 0a c1 3d b0 97 98 be
       0.03138906 0.23530555 0.09425805 -0.29803228
000130 e9 7a 1a 3e 5b 3f c5 3d 9d e9 f2 bc 44 48 f0 be
       0.15085949 0.09631225 -0.029652411 -0.46930134
000140 25 34 97 3e 6c 73 82 3e a5 7f ed bc ed ef 4f be
       0.2953197 0.25478685 -0.02899153 -0.20306368
000150 95 a9 08 3d 09 a4 52 3e fd d3 08 3f 45 f2 d5 bd
       0.03336485 0.20570387 0.5344847 -0.104466
000160 fa 9e 03 be de 8c ef bd 66 ac 63 3c fd 3d db bb
       -0.12853613 -0.1169679 0.013896083 -0.006690739
000170 b0 c2 0f be 7f 91 d7 bd 70 4b 05 3a aa a3 d4 bd
       -0.14039111 -0.10525798 0.00050847884 -0.10382779
000180 41 02 a8 3d 69 d6 a4 bd 13 44 3c bd a7 08 fb 3d
       0.08203555 -0.08048708 -0.045963358 0.1225751
000190 13 52 0c 3d 98 b3 01 be 4d f4 e1 3d 39 cd 79 be
       0.03425796 -0.12666166 0.11032925 -0.24394692
0001a0 f0 86 42 3e 62 78 93 be 6a e1 cc bd c9 f7 cb 3c
       0.18996787 -0.28802782 -0.10003932 0.024898427
0001b0 af 06 0a 3e ca 32 b9 3d 00 c4 61 3c 09 31 37 be
       0.13479112 0.0904289 0.01377964 -0.17889799
0001c0 06 a6 2c bc 66 a7 0e be 99 8f 35 3e 1b e9 58 3c
       -0.01053763 -0.13931045 0.1773056 0.01323917
0001d0 ed d0 97 be c2 e8 ee 3d c4 c7 7c 3d 6b cc 8e ba
       -0.29651585 0.11665489 0.06171395 -0.0010894662
0001e0 18 8f 91 3e b2 e1 64 bd 1a 43 c2 3d 6c 50 26 3d
       0.28429484 -0.055879302 0.09485455 0.04060404
0001f0 05 02 88 3b 5f a8 53 bd d8 f5 ac 3d d9 8e b5 3b
       0.0041506314 -0.051674243 0.084453285 0.0055407104
000200 0c 8a 86 3e 72 23 70 3e 86 d8 0a 3e d0 18 32 3e
       0.26277196 0.23451021 0.1355916 0.17392278
000210 80 2a d3 3e 5e 31 20 be e4 1f 02 3e f4 0b 92 be
       0.41243362 -0.15643832 0.12707478 -0.28524745
000220 fe b1 34 3e ab 69 98 3e 51 28 9e 3d 06 2e c2 bd
       0.17646024 0.29768118 0.077225335 -0.094814345
000230 15 0f b6 bc b2 a8 2d be 6b 39 20 3f 6e 06 9c 3e
       -0.022223989 -0.16958883 0.6258761 0.30473655
000240 24 1b 93 3e b5 51 01 be 96 18 88 3d 51 d5 37 3e
       0.28731644 -0.12628825 0.066453144 0.17952468
000250 99 3c 6b 3e 0d 93 18 3e 4f 7c 49 3e a7 97 47 3e
       0.22972335 0.14899845 0.19676326 0.19491445
000260 2d 89 a2 3d a5 28 72 3e eb 38 0f 3f d4 e7 eb 3e
       0.079363205 0.23648317 0.55946225 0.46075308
000270 b8 4b 32 3e 51 b6 fa 3e 70 1f 58 be c5 11 f4 3e
       0.17411697 0.4896722 -0.21105742 0.47669807
000280 7c 8a 9f 3d 90 e1 f0 bd 57 a6 cf 3d d9 fc c1 3d
       0.07790086 -0.11761773 0.10139149 0.09472055
000290 32 e5 3d 3e 25 8b 15 3d fa f9 fc 3d 15 94 8d bd
       0.18544462 0.03650965 0.12352367 -0.0691301
0002a0 fc 22 85 be 18 ba 95 3e ca 4a 0c 3e 8c c9 13 3e
       -0.26003253 0.2924354 0.13700405 0.14432353
0002b0 3e 7a d4 3d fc 09 ad bd 7a 01 09 bf 64 ca f7 3e
       0.10374878 -0.0844917 -0.5351788 0.483966
0002c0 39 2d 16 3e 04 f4 74 bd 59 b7 20 3e c2 61 67 3e
       0.14665689 -0.059803024 0.15694942 0.22595885
0002d0 b7 ff ec 3e 70 90 c9 be bf 7c ef 3d 11 45 17 3f
       0.46288845 -0.3936801 0.11693715 0.5908976
0002e0 53 5b 2e 3d 8f ca f0 3e 8c 3e b9 3e 18 97 6c 3e
       0.042567562 0.4702954 0.36180532 0.23104513
0002f0 8d 47 c6 3d 6e ab df 3d 5c ef c4 3e ed ef e2 3e
       0.09681616 0.109213695 0.38463867 0.44323674
000300 77 0c 50 be 93 60 e0 3d a9 ae 92 3e 10 ac 10 3e
       -0.20317255 0.1095592 0.2864888 0.14128137
000310 78 5c bd 3c 1c aa 4b 3e 68 a2 bc 3d 16 07 b4 3e
       0.023115382 0.1988911 0.09210664 0.35161656
000320 82 6c f7 3e 84 d6 22 bd 45 e7 de bd 1b 61 24 3e
       0.48324972 -0.03975536 -0.10883955 0.16052668
000330 41 8c d4 3c f2 86 22 bd 91 98 84 3e 1c 1b 97 ba
       0.025945785 -0.039679475 0.2589765 -0.0011528465
000340 65 44 14 3d a9 45 d9 3c 4d b6 d0 bc 3a c9 b0 3e
       0.03619804 0.026522474 -0.025477553 0.34528524
000350 df e8 b0 3e a7 57 4a 3a 24 9c 8d 3d 6b f1 bb bd
       0.34552667 0.00077187497 0.06914547 -0.09176906
000360 9f 68 2f 3e 0d 71 89 3e 21 a8 c5 3e 2c 9f 01 bc
       0.17129754 0.26844063 0.38604835 -0.007911485
000370 19 e7 7d 3d cd f4 3a 3e e0 5a 99 be 78 2b 4d 3e
       0.06198797 0.18257447 -0.29952145 0.20036113
000380 52 06 14 3e 04 7a 02 3e fb b3 32 3e 29 07 f5 3c
       0.14455536 0.12741858 0.1745147 0.02991064
000390 38 e5 17 3f 2f 29 3a 3d 71 40 8f bd 29 37 92 3d
       0.59334135 0.045449432 -0.06994713 0.07139427
0003a0 a9 eb 7d bd 1f 0d d4 3d e3 05 10 3e 4c 09 d0 3c
       -0.06199232 0.10354065 0.14064746 0.025395058
0003b0 8f 9a 81 3e 03 02 28 bc 80 d0 87 3e 20 88 24 3f
       0.2531323 -0.010254386 0.2652626 0.6427021
0003c0 09 9b d7 bd 0f 33 46 3e 44 a5 e4 3d d4 50 2d 3e
       -0.105276175 0.19355415 0.111643344 0.16925365
0003d0 9b 72 a4 3d 9e 00 9e 3e 92 e2 fd bb 03 29 2d 3e
       0.08029672 0.30859846 -0.0077479566 0.16910176
0003e0 bb bb 1f be 96 5c 34 3e af 70 d9 3e 4d ba c5 3d
       -0.15598957 0.17613444 0.42468783 0.09654675
0003f0 7c 27 58 3e 6f 5e 5a 3e e1 10 d0 3d 61 af a7 3e
       0.21108812 0.21325086 0.101594694 0.3275099

layer4.weight_hh_l0 f4 [96, 32]
000000 22 69 f4 be fa 41 a7 bd fa 5b 11 3a b3 18 d1 3d
       -0.4773646 -0.08166881 0.00055450166 0.10209789
000010 26 26 89 3e 54 20 99 bc c5 db 05 3f ff 59 44 be
       0.26786917 -0.018692173 0.52288467 -0.19174956
000020 e4 3a 40 3c a9 65 f2 bd 61 dc 9d 3e c2 cd 5c be
       0.011732791 -0.118357964 0.30832198 -0.21562865
000030 48 51 95 be e0 d4 08 be 2e 65 82 3d d5 3a 1e be
       -0.29163575 -0.13362455 0.06366955 -0.1545213
000040 28 c8 53 bc 49 eb 3b be b2 4f e6 bd 98 5c 0f 3e
       -0.012926139 -0.18351473 -0.112456694 0.14000165
000050 3f f9 77 be 81 7e f2 3e 13 e2 82 3e f8 ed 05 3e
       -0.24216174 0.4736214 0.25563106 0.13079059
000060 6e 14 17 be 2d c2 7a be 8d 0e e1 3d 39 37 55 be
       -0.14753887 -0.24488135 0.109891035 -0.20821847
000070 60 ed 8b be df 84 ab bc 9e 7c 8b bd 0c f2 79 3d
       -0.2732954 -0.020937381 -0.06810878 0.06102185
000080 92 62 65 be 50 36 8a 3e 8f 96 2f be 44 94 f5 3c
       -0.22400883 0.26994562 -0.17147277 0.029977925
000090 fa bb 84 3c bd c2 fc bd ef ee b3 3d 51 2c 19 3e
       0.016202915 -0.12341831 0.08785807 0.14958312
0000a0 a2 c7 7f 3e 05 72 c1 bd 00 44 3f 3f 11 88 2b 3e
       0.24978498 -0.094455756 0.74713135 0.16751124
0000b0 f6 05 68 3e 0f 2b 7d 3d b3 6e 4a bd 9f 6e 85 3e
       0.22658524 0.061808642 -0.049421977 0.2606096
0000c0 3d c5 28 be 97 d0 ab be 92 6b 10 bf 9b 6a bd bd
       -0.1648149 -0.3355758 -0.5641414 -0.09248849
0000d0 c9 b5 f5 be b4 ef a9 bd 58 1d b7 3e ad 3c ec be
       -0.47990254 -0.08297673 0.35764575 -0.46140042
0000e0 af 9a 54 3d a4 7d 33 be ed fb 23 3e 72 7b b8 bb
       0.05190533 -0.17528397 0.16014071 -0.00562995
0000f0 e3 49 dc bc 4e 7f 5a bd d5 7a 6a be 85 99 12 be
       -0.0268907 -0.053344063 -0.22898419 -0.14316376
000100 96 d5 27 be a0 28 b8 3e c7 8f 28 3f aa f5 85 3d
       -0.1639007 0.35968494 0.65844387 0.06540997
000110 b8 6a b5 be 05 74 08 3e 3d 51 34 bf 20 1b 92 be
       -0.35432982 0.13325508 -0.7043646 -0.2853632
000120 27 be 0c 3e 30 2c 6b 3d b0 84 96 bb a4 c3 17 be
       0.13744412 0.057415187 -0.0045934543 -0.14820725
000130 9f 2e 09 3f 14 8b 57 be 96 f3 f2 bd b8 42 c8 bd
       0.53586763 -0.21049148 -0.118628666 -0.097783506
000140 f1 af 4d 3e 72 04 e5 3e 06 98 bb 3e 9f 8b 25 3d
       0.20086648 0.44729954 0.36639422 0.040416356
000150 53 a1 21 3f d5 e2 93 3e fd e1 fa be 7e a4 92 3e
       0.63136786 0.28883997 -0.4900054 0.28641123
000160 05 2f e4 3c 52 09 a8 3d c0 cf 8c 3e f5 ce 6f 3e
       0.027854452 0.08204903 0.2750225 0.23418792
000170 6e 50 a1 bc 7f ff 7c bd 37 ba 82 bb 96 2b a9 bd
       -0.019691672 -0.061767098 -0.0039894837 -0.082602665
000180 ac e6 a2 be c7 63 1c be 39 45 3b bd bc a9 51 3d
       -0.31816614 -0.15272437 -0.045720313 0.051187262
000190 7e 05 f1 bd 61 e4 49 be 91 91 a0 3e 87 76 66 3e
       -0.11768626 -0.19716026 0.31361058 0.22506152
0001a0 a6 95 50 3e 0f 00 1e bd 6e 0e c8 3c e0 13 a3 bd
       0.20369586 -0.038574275 0.024420943 -0.07962775
0001b0 4f 60 85 3d 57 41 36 bd 45 73 8b be 92 8e f3 bd
       0.0651251 -0.044495907 -0.2723638 -0.118924275
0001c0 69 15 34 be 4d 35 58 bd fb 16 8d bd c1 65 f0 3c
       -0.17586292 -0.052785207 -0.06889149 0.029345395
0001d0 d8 d5 68 3e b5 60 8d bc 44 b9 04 3e 67 24 17 3e
       0.22737825 -0.017258028 0.12961298 0.1475998
0001e0 3a f1 5c be 38 26 43 3c 8e 9c 9c 3e 66 24 9a bd
       -0.21576396 0.0119109675 0.30588192 -0.07526474
0001f0 c7 04 29 be 14 7e 87 be 4d f7 a5 bd d3 e0 81 be
       -0.16505729 -0.26463377 -0.081038095 -0.2536684
000200 91 87 4b 3d aa 14 9e 3e 8a c9 09 bc e6 4b 27 be
       0.049689833 0.3087514 -0.008409867 -0.16337547
000210 b9 25 90 bd b7 bf d2 be 9c 2f 1e 3e 8d e5 2a 3e
       -0.07038445 -0.41161892 0.15447849 0.16689129
000220 eb b0 cc bd 1c a0 1c 3e 8d 20 1f 3e d1 6f 24 bc
       -0.09994682 0.15295452 0.15539761 -0.010036425
000230 97 09 9f 3d 96 ed 72 3e 15 aa a4 3d 3f c1 34 3e
       0.07765501 0.23723444 0.08040253 0.17651843
000240 0c 37 4c be 8e 96 0a be 5d d7 a0 bc 7f 25 40 bd
       -0.19942874 -0.13533995 -0.019633943 -0.04691076
000250 4a 2c 35 3e 5f b9 2b be f9 69 92 3e 7f eb 52 be
       0.17692676 -0.16769932 0.28596476 -0.20597647
000260 48 d4 65 3d 22 35 70 3c 9d 2b ae 3c 43 30 03 be
       0.05611065 0.014661105 0.02126103 -0.12811379
000270 be 00 d0 3d 6b ff 56 be aa 1a 02 be 2d b8 96 bc
       0.101563916 -0.20995872 -0.12705484 -0.018398369
000280 5d 2f f3 3c 1b bf 0f bd 2f 0e c6 bc c4 53 49 be
       0.02968567 -0.03509436 -0.024176685 -0.1966086
000290 d2 4c 6e be 45 1d d9 be 9f 03 83 3e 69 94 81 3d
       -0.23271492 -0.42405143 0.255887 0.06327135
0002a0 62 df 08 3e 86 bd 7f 3e 4e 8b 18 3e 9d 88 c7 3e
       0.13366464 0.24974641 0.1489689 0.38971415
0002b0 e5 a0 8f be 84 f3 ce 3d ca e9 37 bd 75 d3 59 3e
       -0.2805244 0.10105041 -0.044900693 0.2127207
0002c0 2c d3 16 bd 7a 73 94 3d b7 0b 01 be 7b b8 c9 bd
       -0.036822483 0.07248588 -0.12602125 -0.0984964
0002d0 1e 98 59 3e 5b c2 52 be af d9 b0 bd d9 61 6f 3e
       0.21249434 -0.20581953 -0.0863527 0.2337717
0002e0 9c 5a 8a bc 27 04 fe 3d 25 86 e0 be 46 f3 58 be
       -0.016888909 0.12403136 -0.43852344 -0.21186551
0002f0 4c 3c 44 3e 7c 10 77 3e c1 ab 56 be d6 cd b5 be
       0.19163626 0.24127382 -0.20963956 -0.35508603
000300 92 b9 96 3d f8 c7 55 3c db 3f 8c bd 47 9a 18 3e
       0.073596135 0.013048165 -0.06848117 0.14902602
000310 ee 4d ae 3e a4 bc 36 3e 06 74 2b be d8 f7 a9 bd
       0.3404383 0.17845398 -0.16743478 -0.082992256
000320 3e e1 aa bd 8d 3f 0d 3e 25 90 25 be 2b 7c bd bd
       -0.08343743 0.13793774 -0.16168268 -0.09252199
000330 07 47 33 3e c4 50 dc 3d c1 2d 55 be e4 03 fd bd
       0.17507564 0.10757592 -0.20818235 -0.12354258
000340 ae 31 aa 3e 79 57 93 3e 90 8b 9d bd 7d 90 52 3d
       0.33241028 0.28777674 -0.07692635 0.051407326
000350 c4 7e 32 3e fe ad c0 bd c3 e8 49 3f 73 23 48 3e
       0.1743117 -0.094081864 0.7887079 0.19544773
000360 3a e5 85 3e 22 8f 29 be 14 61 66 3e 04 7c c4 be
       0.26151448 -0.16558507 0.2249797 -0.38375866
000370 a3 e2 d9 be d4 32 9f be b2 08 55 be 08 4e 82 3c
       -0.42555723 -0.31093466 -0.20804098 0.015906349
000380 f8 db 71 be ed 6f 19 bf f2 d3 96 3c 66 b1 5f 3d
       -0.23619068 -0.5993641 0.01841161 0.05461254
000390 6b db 61 3d 5a 8b 36 3e c2 79 46 be 20 44 0e 3e
       0.055140894 0.17826596 -0.19382384 0.13893175
0003a0 7e a1 3c be 02 6c 1b be 29 1c 43 be 07 c4 87 3e
       -0.1842098 -0.1517792 -0.19053711 0.26516744
0003b0 30 da 91 be 70 78 42 be 83 9d 2f 3c 2a c0 6b be
       -0.28486776 -0.18991256 0.010718706 -0.23022524
0003c0 96 8b 29 3d a2 8b c2 3d 48 b5 fd 3c 6f 25 75 bd
       0.041392885 0.09499289 0.03097023 -0.059850153
0003d0 56 88 95 be fc 97 23 3e a8 82 94 3d 60 1c 36 3e
       -0.2920558 0.15975946 0.07251483 0.17784262
0003e0 fb 23 4a 3e 06 c9 b4 bd 99 03 31 3f 46 10 87 be
       0.19740288 -0.08827405 0.69146115 -0.26379603
0003f0 8a d6 3d 3d 6f f4 c4 3e 50 d6 e6 3d e9 43 60 3e
       0.04634718 0.38467738 0.112713456 0.21900906

layer4.bias_ih_l0 f4 [96]
000000 49 c2 0a 3e 25 bd 04 3e 33 d8 0d 3e 1b bb ab 3c
       0.13550676 0.12962778 0.13852005 0.020963242
000010 1b e4 27 bd 79 c5 84 bd 27 4c ef bc a1 91 7c bc
       -0.040989023 -0.064829774 -0.029211117 -0.01541558
000020 2c 76 27 3e 36 26 56 be 09 5f 16 be c4 ae 36 3c
       0.16353673 -0.20913014 -0.1468469 0.011150066
000030 8d 14 a4 3d 15 5d 16 be 9c 5b 48 3d 0b a4 5a 3d
       0.08011732 -0.14683945 0.04891549 0.0533791
000040 21 13 87 3d 07 57 75 3d f5 29 53 bd 6d 29 f8 3c
       0.065954454 0.05989745 -0.051553685 0.03029319
000050 a7 0b eb 3d 5c 29 98 3e df b1 d0 3d d5 9b f5 3b
       0.11476832 0.29719055 0.10190176 0.0074953833
000060 91 71 ac bd 64 f9 3a 3e bc 06 6d bd 60 31 64 bd
       -0.084200986 0.18259197 -0.05786775 -0.05571115
000070 b3 86 d7 3d b7 22 31 3d 88 39 5e be 48 29 f5 3d
       0.10523739 0.043245997 -0.21701634 0.119707644
000080 8d 83 51 3e 2f 50 fe 3e 92 44 62 ba b5 7e 52 3e
       0.20460339 0.4967055 -0.00086314336 0.20556147
000090 9f 4e b5 be 5c ed 9b bc a3 73 8d bd 23 26 b1 3d
       -0.35411546 -0.01903408 -0.069068216 0.08649852
0000a0 5d 52 4b be bb 58 04 3c a9 41 dd 3e 54 18 73 bd
       -0.19855638 0.008077796 0.43214157 -0.059349373
0000b0 13 ef 58 bd 28 70 12 be 50 ea 1f 3e 81 dc f9 bd
       -0.052962374 -0.14300597 0.15616727 -0.12200261
0000c0 94 a0 cf 3d f6 08 b6 3e de 6c 6d bd b0 81 94 bd
       0.1013805 0.35553712 -0.057965152 -0.072512984
0000d0 21 93 f8 3e 99 c2 86 be 14 14 ba 3e cc 44 cc 3e
       0.4854975 -0.2632034 0.36343443 0.39896238
0000e0 34 e0 98 3e bb f7 65 bd 6f be 5e 3e 59 e7 d9 3e
       0.29858553 -0.056144457 0.21752332 0.42559317
0000f0 03 c1 90 3c 0a 76 ca 3e a0 b0 9d 3d 42 2e a0 be
       0.01767016 0.39543182 0.07699704 -0.31285292
000100 8e ec 10 be 96 9d 77 3d d2 0e d2 3d 86 72 1c 3e
       -0.14152738 0.06045302 0.10256733 0.15278062
000110 8b 36 23 3d b3 a2 a6 3d 4d 85 cf bd d0 1d 6a be
       0.039846938 0.08136501 -0.10132847 -0.22862935
000120 51 27 46 be d6 b0 7c bc 33 13 27 3e 98 81 89 3a
       -0.19350936 -0.01542302 0.16315918 0.0010490892
000130 46 c2 15 bb 00 e2 b0 bd 46 76 78 3d c1 dc a2 3d
       -0.0022851392 -0.08636856 0.06065967 0.07952262
000140 80 ca cc bd f4 74 d1 bc bc 84 f0 bc 55 65 e1 bd
       -0.09999561 -0.025568463 -0.029360168 -0.11005656
000150 4b 99 da 3d 5f b6 4e 3e 7d 54 b3 3d 3f 0b ac bd
       0.106737696 0.20186757 0.08756349 -0.084005825
000160 52 b6 9e bd 2a b3 14 be bc da a1 bd 42 4b b5 3d
       -0.077496186 -0.1452147 -0.079030484 0.08852245
000170 ef 0e 3c 3e e4 b9 3a 3c b5 68 33 be 67 cb 41 3e
       0.18365072 0.011396859 -0.17520411 0.18925248

layer4.bias_hh_l0 f4 [96]
000000 8e a2 be 3e 1a 30 3a 3d c2 9a 3c 3e 3c b6 6d 3e
       0.37233394 0.04545603 0.1841841 0.23214048
000010 d5 4a f2 3d ba d9 35 bd 9f 18 bf 3d 3a f7 c6 3d
       0.11830679 -0.044397093 0.09330868 0.097151235
000020 14 a3 79 3d bb 97 1d be 00 75 8e bd f5 87 8c bd
       0.06094654 -0.15389912 -0.0695591 -0.06861869
000030 33 ba 2f bd 33 53 5b 3d 6e 72 ad bd 54 e5 07 bd
       -0.042902183 0.05354614 -0.08469091 -0.03317769
000040 da e6 a7 bc d9 07 ee 3d 60 5a 92 3d e4 2a d6 bc
       -0.02049582 0.116225906 0.07146144 -0.026143499
000050 1a 46 e0 3d 44 37 23 3e 30 b4 38 bd dc f1 aa bd
       0.10950871 0.15939051 -0.045093715 -0.08346912
000060 61 cf 87 3d 8d ce 54 3d 68 99 5c bc 22 d0 cf 3d
       0.06631351 0.051954795 -0.013464309 0.1014712
000070 f4 66 da 3d ca e5 26 bd c7 62 95 3d 79 a9 72 bd
       0.10664168 -0.040746488 0.07294231 -0.059243653
000080 e5 11 59 bc c5 a3 e7 3e c9 ac df bd a5 36 35 3e
       -0.013248895 0.45242134 -0.10921628 0.17696626
000090 b1 6a 97 be 95 04 3f be 57 73 1a bb 9d 26 4e be
       -0.29573587 -0.18654092 -0.0023567283 -0.20131917
0000a0 11 6a 3e bd 65 41 56 be 26 8f eb 3e ff 4d 4b bd
       -0.04648787 -0.20923384 0.4600765 -0.04963493
0000b0 05 f6 8c be 09 1c 5c be a6 61 25 3e ae e2 d4 3b
       -0.27531448 -0.2149507 0.16150531 0.006496749
0000c0 6f 71 f9 3d 86 a2 5a 3e d7 5f 3f be b9 17 bc 3d
       0.12179839 0.2135106 -0.18688904 0.09184212
0000d0 76 25 76 3e c7 90 60 bd 2a f9 8e 3e d0 c7 db 3e
       0.24037728 -0.05482557 0.27924472 0.42925882
0000e0 19 06 a4 3e b6 fb 87 be 2d db d4 3e 72 43 da 3e
       0.32035902 -0.26559228 0.41573468 0.42629582
0000f0 7d 4d 59 bd fd 9c dc 3e 2a 19 39 bd 4b 44 c7 bd
       -0.053052414 0.43088523 -0.045190014 -0.09729823
000100 ca 1f f3 3d be 09 1c be 9e 20 08 3e 40 ed 05 bc
       0.11871298 -0.15238091 0.13293692 -0.008174241
000110 db b7 02 be f6 06 22 be 60 27 1f bd 86 76 07 bc
       -0.12765448 -0.15822968 -0.03885591 -0.008268004
000120 9f 80 48 be 02 a5 18 be f4 14 1c 3e ca 4d 71 3b
       -0.19580315 -0.14906695 0.15242368 0.0036820048
000130 f4 c0 3d 3e 39 a8 a7 bd bd 0f 6c be f7 0b b7 bc
       0.18530637 -0.08186383 -0.23052879 -0.022344572
000140 bc f0 52 bd e1 ea d8 bb ed 77 52 bd a4 3d fd 3d
       -0.051499113 -0.0066197966 -0.0513839 0.12365273
000150 f4 56 f1 3d cb 0f 5c bd 7b 6a 0f be 7a 8a 79 bd
       0.11784163 -0.053726 -0.14005463 -0.060923077
000160 c2 6d cb bd 7d 79 1b bc c8 2b 15 3d b2 c9 0f be
       -0.09933044 -0.009489414 0.036418706 -0.14041784
000170 9e 5d 2e be 4c d3 87 3c 92 e8 22 3e 2c 6a 03 be
       -0.170279 0.016580246 0.15909031 -0.1283347
