final.pth (torch, 436299 bytes, 24 tensors)

layer1.0.weight f4 [32, 3, 3, 3]
00000000: 49f5 5bbe 57ba 3bbe dfff c1bd c169 afbb
00000010: 0a17 eb3c 34b5 c83d 80b9 133e f2e3 f63c
00000020: 70e2 31bd 9ab4 fcbd b526 253a c52f 79bd
00000030: 74c7 02be 62d0 71bb 9140 d5bd ffa4 263e
00000040: 1454 143e 4618 e43d 06a7 c8bc b633 d6bd
00000050: 722c 15bd 8b5a e7bd 729d ac3d d970 e53c
00000060: 9240 da3d 7313 b03d bfbd d83d f3b2 e53d
00000070: 0fdc 513d 0595 48bc 4456 c1bd c073 dc3d
00000080: 5024 843d 9a50 00be f6d5 943d e9c5 48bd
00000090: 63fe fe3d e0e5 2b3d ba81 533c 2707 26be
000000a0: c136 8bbc 1c3e 363e 46f9 5cbd c5de 8cbc
000000b0: cb38 e1bd d1cb a43d 2739 4abd 8472 67bd
000000c0: 1cdf 88bd 630b 7d3d 045b 333e 7909 42be
000000d0: 2d30 3b3c 1140 79bd 8848 c83c 805c 473d
000000e0: 9ee1 e43d e859 63be 7266 b8bd 2991 3f3e
000000f0: d5a1 f9bc 6703 4d3d f1d2 533c 3fd3 05be
00000100: ddf2 2c3e d755 493e 33d9 3ebe fd20 f93d
00000110: 3a52 b33d f089 81be 74a3 c33d d755 5cbc
00000120: f161 18be 14d1 9abd 0c7a aa3d 6c89 90bc
00000130: 66a1 f93d 818d 81bd 66ce 65be 8066 203d
00000140: b5b6 973c 1832 a13a 3009 0f3e 0760 f93d
00000150: 983d 12be fffd 5b3c 933b c03d a3ca 40be
00000160: 856f 05be 997c 4e3e e972 37be cc15 033e
00000170: 506d bcbd 11b9 3abc 64d0 ad39 d44f 0c3e
00000180: b6d2 15be 8f49 e1bd e0ec 433e d7b2 12be
00000190: 14c2 77bd 1a59 d43d 8c55 6fbe b55f fe3d
000001a0: 0306 d83d 6787 2abd adcf f3bd 6680 043e
000001b0: 065b d23d c632 593c eeb8 9a3d 6b77 3bbd
000001c0: 4f02 a43d a18b cd3d 3b22 b1bd 2bb3 893d
000001d0: e3a2 f13c 3ce1 8a3d 62cd 103e 2274 fb3d
000001e0: 51e1 6abd 7b77 c53d 70a0 af3d 1909 563b
000001f0: 9eea 2e3d b7d3 2fbd ad6e 75bd 630b 8e3d
00000200: dc72 ddbd 6df9 91bd 348b c0bb fd18 76bd
00000210: f0a1 1cbe ec66 ddbd e2d6 fe3d c569 c73d
00000220: ebf8 85bc 78fc cf3d fa2b e33d 04cc 0abe
00000230: b5bb c63d aaae b9bc e9a6 0c3d 1bb6 ad3d
00000240: 852b 893d c6d8 1c3d 333e 563d e89f 49bd
00000250: f8e2 c5bd f2e1 9cbd 9124 903d 20ec 9fbd
00000260: cdeb d6bc 2236 973d d3c2 adbd e8c0 8d3d
00000270: 29b0 453d 16e2 cabb f372 d13d aa70 b7bd
00000280: cd93 0bbe a3ad ba3d 7d85 bfbd 94d9 cfbd
00000290: ceee 14bd 6603 23be 3f55 883c 93cb ffbd
000002a0: 0686 bcbd 189c 0abe 3a8f 4a3d 72db 4abe
000002b0: 1cad 403d b6af 8b3c f4ba 65bc f945 c8bc
000002c0: de44 3ebc 0107 30bd 2bcd 753d aa6f debb
000002d0: 651a f7bc d13a 1abd 3e44 5fbe 2b4b 3fbe
000002e0: f01c dd3d 2f9d 4cbe 215e 11be ccaf 613d
000002f0: 96fb 2dbe ceb7 ce3d a3e0 6e3d a9e0 10bd
00000300: 6c64 fe3d a43a b3bd dfb8 ab3c ab97 9abd
00000310: fbc8 65bb 1682 4ebd 2ea2 103e 65ca 8f3d
00000320: 7ed8 ff3d 6c0a 823d df38 023e 283d 9aba
00000330: 123c 13bd b7a6 80bc 4973 b43d f94a e03d
00000340: dc20 d43d df73 563d a24e db3d cd6b b63d
00000350: 5682 7dba 6965 bcbd 1257 5bbd ef99 adbd
00000360: 7aa1 47be 9aa6 d1bd 8104 be3c f99e c0bd
00000370: 6f24 813d 29b1 173d 4b03 02be 212f 7b3d
00000380: c8f6 acbd 54c9 91bd 0894 f13d 4f7e debd
00000390: 068d 95bd 8558 61bd 72d7 6dbd 78ef 53bd
000003a0: 500e d3bd ff26 00be f08f 3bbd ed37 d4bd
000003b0: bd0f 893d eb6c 8abc 616b 093e c8fa 0d3d
000003c0: bf06 0abe d7d5 3e3c 1103 43bd cdee 3cbe
000003d0: 4a55 b0bd ac6b 0fbe 4f03 653d a195 8cbd
000003e0: 12b1 7a3e 17d5 d0bc 0909 933c 8de7 a3bd
000003f0: ccdd a4bd d978 933d 0ea6 aebd e7ee 033e
-0.21480288 -0.18332802 -0.09472632 -0.005353183 0.02869751 0.09800187 0.14426231 0.03013799
-0.04342884 -0.123391345 0.0006300018 -0.060836572 -0.12771398 -0.0036897887 -0.10412706 0.16273879
0.14485198 0.11137442 -0.024493705 -0.10459082 -0.03641934 -0.112965666 0.08428468 0.028007912
0.10656847 0.0859746 0.10583066 0.112157725 0.051235255 -0.01224256 -0.09440282 0.10764265
0.064522386 -0.12530747 0.07267372 -0.049016867 0.12450864 0.041967273 0.012909347 -0.16213666
-0.016993882 0.1779713 -0.053948663 -0.017196069 -0.109971605 0.080466874 -0.04937091 -0.056505695
-0.0668318 0.061778437 0.17515188 -0.18948926 0.01142506 -0.060852114 0.024448648 0.0486722
0.111758456 -0.22202265 -0.09003915 0.18707718 -0.030472675 0.050052073 0.01292871 -0.13068865
0.1688952 0.19661652 -0.18637542 0.12164495 0.08755918 -0.2530055 0.095526606 -0.0134482
-0.14881112 -0.0755941 0.0832406 -0.017643653 0.121889874 -0.06325818 -0.22442016 0.03916025
0.018519739 0.0012298254 0.13968349 0.12176519 -0.14281309 0.013427257 0.09386363 -0.188273
-0.13030823 0.20164718 -0.17914928 0.12801284 -0.09200537 -0.011396662 0.00033152394 0.13702327
-0.14631161 -0.11000358 0.1913333 -0.14326034 -0.06048782 0.10368557 -0.23372477 0.124205984
0.10548022 -0.041633036 -0.119048454 0.12939605 0.102712676 0.013256734 0.07554804 -0.045768183
0.08008253 0.10036398 -0.08649107 0.06723627 0.029496616 0.06781241 0.14140847 0.1227801
-0.057343785 0.0964193 0.08575523 0.0032659231 0.042704217 -0.042926516 -0.05992 0.069357656
-0.10812923 -0.07127652 -0.0058759693 -0.060082424 -0.15296149 -0.108106464 0.124433294 0.09736971
-0.016354045 0.101555765 0.11092372 -0.13554388 0.09703771 -0.022666294 0.034338865 0.084819995
0.06697754 0.03829267 0.05230541 -0.049224764 -0.096624315 -0.07660283 0.070382245 -0.07808709
-0.026235485 0.07383372 -0.084844254 0.069215596 0.048263703 -0.0061915023 0.10227003 -0.08957036
-0.136306 0.0911515 -0.09351633 -0.101489216 -0.036360554 -0.15919265 0.016642211 -0.124900006
-0.092052504 -0.13536108 0.049452998 -0.19810274 0.04704009 0.017051559 -0.014021624 -0.024447428
-0.011613099 -0.04297543 0.060010117 -0.0067882137 -0.030163953 -0.037653748 -0.21803376 -0.18681018
0.10796535 -0.19981836 -0.14196064 0.055099294 -0.16990504 0.10093652 0.0583197 -0.035370503
0.12421498 -0.08751419 0.020962177 -0.075484596 -0.003506242 -0.05041703 0.14124367 0.070210256
0.124924645 0.06349644 0.12717007 -0.0011767494 -0.03594596 -0.015704496 0.088110514 0.109518
0.1035783 0.052356597 0.107083574 0.0890728 -0.00096706057 -0.0919903 -0.053549834 -0.08476626
-0.19495192 -0.10236855 0.023195507 -0.09405322 0.06305777 0.037034187 -0.12696569 0.061324243
-0.08445507 -0.071184784 0.11795813 -0.10863935 -0.07302289 -0.05501606 -0.058066793 -0.051742047
-0.10305464 -0.12514876 -0.045791566 -0.103622295 0.06692455 -0.01689764 0.13419868 0.03466299
-0.13479136 0.011647663 -0.047610346 -0.1845047 -0.086100176 -0.14005917 0.05591136 -0.06864477
0.2448161 -0.025492234 0.017948644 -0.08003149 -0.08050117 0.07200784 -0.08527766 0.12884103

layer1.0.bias f4 [32]
00000000: f86d c8bc ce02 87bd f573 793c 0c6b 8f3c
00000010: cf40 debc f975 21bd f874 e1bb aa20 13bd
00000020: 0f23 bc3c eb8b 07bd 959d 84bd b36d e8bc
00000030: f148 96bd ace8 abbc fad3 f5ba 9f69 d4bc
00000040: a5ae 343d 7b98 dfbb b8e0 38bd 7c27 45bd
00000050: f568 20bd 50c1 4dbd 5bab 93bc 6cf3 1fbe
00000060: 98d9 8bbd ad75 58bd bfa5 4dbd e569 35bc
00000070: 1462 1ebd c6d4 0abe eeb7 d8bd 614f d3ba
-0.0244665 -0.06592332 0.0152254 0.017507099 -0.027130513 -0.039419148 -0.006880399 -0.035919823
0.022965936 -0.03309242 -0.06475369 -0.028372621 -0.07338131 -0.02098497 -0.001875519 -0.02592927
0.044111867 -0.006823597 -0.045136184 -0.04813336 -0.039162595 -0.050233185 -0.018026045 -0.15620202
-0.06828612 -0.0528466 -0.050206896 -0.0110726105 -0.038667753 -0.13557729 -0.10581957 -0.0016121679

layer2.0.weight f4 [64, 32, 3, 3]
00000000: 6b7d 043e 7311 38bd 8b78 87bd 8a3f 01bd
00000010: 8258 76bd 199d 4fbd e4bd 56bd 7311 80bc
00000020: f4f1 3d3d b721 2dbd d70d 7e3d 2556 fcbc
00000030: b349 c3bc b91c 683d e3f1 0c3d 94fe 3ebd
00000040: 9db0 64bc 7078 083d e9d1 83bd a347 d0bd
00000050: b2ef 573d f447 24bd e87f 7b3d e605 643d
00000060: 08cc 27bd 744b e93c c819 6bbd afde d63b
00000070: 413c b8bd 425e cdbd f9e2 ce3d 5641 b439
00000080: 0b0b 4bbd d2c5 a23d 4db9 96bb d2a5 dbbd
00000090: 51c3 74bd f148 6c3c 4044 99bd 1c21 acbd
000000a0: d7c9 cebd 86d5 e8bc 4d7c 5fbd 2336 fdbd
000000b0: 4e23 f6bd ddc0 0cbd 6629 fbbb 6878 2d3d
000000c0: 819b 0bbd 5310 6fbd 704c 55bd 8f77 1cbe
000000d0: 6631 abbd 0b28 e7bd c30b 303b f71e 92bd
000000e0: ea0c 783d 0c5f 16bd 0465 9a3d 5c63 a63d
000000f0: b7e0 a63d 54cc 653c 4078 643c 9c71 b63d
00000100: 6042 5f3d c2e9 43bd 4cde 4f3d 539a 7cbd
00000110: 4221 b0bd ae6d ccbd 812a a0bd df8f a2bc
00000120: 233b 43bd a09f bf3a 1245 4f3c 7b29 8bbc
00000130: 1499 9b3d d36c 60bd 9d7f 023e 9d33 fc3d
00000140: a340 ad3c ce9d cf3d 5232 023c 35fd 6ebc
00000150: 7493 03be 5f24 17bd 1336 86bd cbf4 04be
00000160: 35fc 8fbc ade8 203d 496c b5bc 209a b3bd
00000170: be2a 2dbc 25df fbbd 31f0 4fbd 15e2 ffbc
00000180: 822d 133d d6c0 62bd a1a9 6ebb 3f73 7dbc
00000190: 90e6 d0bc 1662 09bd 288e a8bc 1039 cdbc
000001a0: 0391 a13d e940 a5bb df43 e7bc 54b2 a3bd
000001b0: 6e9e 64bd c976 aebd d053 23bd 303d b63d
000001c0: 7859 81bd 21d1 983d 54c0 b2bc a893 f33c
000001d0: ddff 763d bb0e 0bbd 6cf4 30bc 9f84 6b3d
000001e0: 0383 f4bc c41f 08bc 33ba 8f3d 84cd b1bc
000001f0: b01c 00be 91d5 fabd 2abc 133d 4a61 4abd
00000200: 1efd 94bc fbaa 94bd acdb 953d 366b 40bd
00000210: 614d 13bb 7f9e e6bc 231d 5e3c bee8 a13d
00000220: 9fce 82bd f38e d0bc b64c 0f3d 1cfc 2b3d
00000230: b43d 3fbc c66b c73c 1022 123d d180 6c3d
00000240: 61e5 1f3c 60c5 df3d 3676 a13d d1cd 463d
00000250: eaff 95bc 321f bd3d b147 3f3d 2bf3 db3d
00000260: 2560 c23d 73bb d13b dda8 ccbd e443 cf3c
00000270: d3f3 a4bb 03fd a6bb 6364 c8bd d391 74bc
00000280: cd8e 80bd 5dd7 f9bd bb1b bbbc 80df 3bbd
00000290: 8fcc 7cbd 8837 bc3d 2190 ff3b 66eb 943d
000002a0: 78d9 a6bb 1a40 443d 6405 163d ca27 54bc
000002b0: 9552 40bd 46e8 843c 7583 8abd be79 e9bd
000002c0: 3d65 cabd 8fc7 8b3c 25c4 42bd 743c d1bd
000002d0: e3b4 90bc f2a9 5dbd 9b8f 8dbc fca3 f8bb
000002e0: 0868 8c3d 210b 8cbc c874 dfbc cb56 2f3d
000002f0: 05a9 303d 2891 863d 6647 29bd 1be3 6b3d
00000300: 5cc7 1b3d c09c 1fbc 110e 5ebd bbc8 81bd
00000310: 1e40 983d 0434 c73d ed0a f73c a905 403d
00000320: dbc8 3cbc 2b21 7dbd 9574 2bbe 88c9 c63c
00000330: 90fc 203d f5f1 ecbd 67da b1bd 929b a53d
00000340: 633c 863d 4e75 623d 9dad ac3c 4f49 1c3d
00000350: 2118 403d 7a53 a93c 5fb1 233d bdfc ceba
00000360: 3a0a 503d be9f 1ebd 34c1 79bd ba0f aa3d
00000370: 657c a9bc 4a7d 0dbd 3a92 8ebb 84a8 ad3d
00000380: 69cd 5a3c dfa6 d13c cff7 e33c 39fa 97bd
00000390: b218 ecbc 2476 a83d 5f86 c2bb f591 5f3c
000003a0: 5f9a c03d 4f3c 613c bb18 2b3d 7079 fd3c
000003b0: 22ed 0dbd 03e0 663d bc89 4ebd f18d 563d
000003c0: e07f 18bd a648 06bd 5c46 29bd f08c 94bb
000003d0: 856c 6d3d 5842 37bd b449 0fbd 5c29 803c
000003e0: 3557 dd3d 3118 223d 8ab7 9d3d 8011 bc3d
000003f0: a6fc d3bc 1399 943b 71b5 323d 0db3 c63d
0.12938468 -0.044938516 -0.066147886 -0.031554736 -0.060143 -0.05068693 -0.052427188 -0.01563332
0.046373323 -0.04226848 0.062024917 -0.030802796 -0.023838853 0.056668017 0.03441037 -0.046629503
-0.0139581235 0.033317983 -0.064365216 -0.101699136 0.052718826 -0.040107682 0.061401278 0.055669688
-0.040966064 0.028478362 -0.057397634 0.0065573077 -0.089958675 -0.10027744 0.10101885 0.00034380954
-0.04957108 0.079478875 -0.0045997263 -0.10724987 -0.05975658 0.014421687 -0.07483721 -0.084047526
-0.10097092 -0.028422128 -0.0545619 -0.123638414 -0.120184526 -0.034363616 -0.007664847 0.042351156
-0.034083847 -0.058365177 -0.05207485 -0.15279983 -0.083590314 -0.112869345 0.002686248 -0.07134812
0.06055919 -0.036711738 0.075387985 0.0812442 0.0814833 0.014025766 0.013944685 0.08908388
0.05450666 -0.04783035 0.05074911 -0.061670613 -0.086000934 -0.09981857 -0.07820607 -0.019843994
-0.04766382 0.0014619716 0.012650745 -0.016987553 0.07597557 -0.054791283 0.12743993 0.12314532
0.021148985 0.10137521 0.007946568 -0.014586736 -0.12849218 -0.03689992 -0.065532826 -0.12984006
-0.017576316 0.039284397 -0.022146361 -0.087696314 -0.010569273 -0.12298421 -0.050766174 -0.031235734
0.03593207 -0.055359684 -0.0036417025 -0.015469371 -0.025500566 -0.033540808 -0.020575598 -0.025051624
0.07888987 -0.0050431383 -0.028230606 -0.07992998 -0.055815153 -0.0851875 -0.03987485 0.08898389
-0.06315893 0.07461763 -0.021820225 0.029733494 0.060302604 -0.033949595 -0.010800462 0.057499524
-0.029847628 -0.008308355 0.070179366 -0.021704443 -0.12510943 -0.12247766 0.03606812 -0.04940919
-0.018187102 -0.072591744 0.0731729 -0.046977244 -0.0022476541 -0.028151749 0.013556751 0.0790572
-0.06387066 -0.025458788 0.034985267 0.041988477 -0.011672426 0.024343383 0.035677016 0.057740036
0.009759278 0.10926318 0.07883875 0.048536126 -0.018310506 0.09234466 0.04669923 0.1073974
0.09490994 0.0064005195 -0.099931456 0.025300927 -0.005033949 -0.0050960793 -0.09784772 -0.014927345
-0.06277237 -0.121992804 -0.022840371 -0.045867443 -0.06171852 0.09190279 0.007799164 0.07271461
-0.0050918423 0.047912695 0.036626235 -0.01294894 -0.046953756 0.016224038 -0.06763355 -0.114001736
-0.09882591 0.01706293 -0.04755034 -0.10216609 -0.017664379 -0.05411715 -0.01728039 -0.007587908
0.0685578 -0.01709515 -0.027277365 0.04280738 0.04312994 0.06570655 -0.041327856 0.05758963
0.03803192 -0.009741962 -0.054212634 -0.063371144 0.074341044 0.09726718 0.030156577 0.046880398
-0.011522497 -0.06179921 -0.16743691 0.02426602 0.039303362 -0.11569587 -0.08684235 0.08086313
0.065544866 0.05528765 0.021078879 0.03815585 0.04689801 0.020669688 0.039964076 -0.0015791875
0.050791003 -0.03872656 -0.06097527 0.08303781 -0.020689199 -0.034543313 -0.0043509277 0.084794074
0.013354638 0.025592266 0.027828125 -0.07420773 -0.02882037 0.082256585 -0.0059364284 0.013645639
0.09404444 0.013747289 0.04177163 0.030941695 -0.034649976 0.056365978 -0.050424322 0.05238146
-0.037231326 -0.032784127 -0.041326866 -0.0045334026 0.05796482 -0.044741005 -0.0349824 0.015644722
0.10807649 0.039573852 0.07701023 0.09183025 -0.025877308 0.0045348494 0.043630067 0.0970212

layer2.0.bias f4 [64]
00000000: 132b 943c 4bb0 38bc 301f 1dbc fa93 cfbb
00000010: 5fa9 40bd f4fc 07bb 6ce6 9ebc ad14 bcbc
00000020: d634 5abc 7b16 80bc f884 2c3d 7f94 f93c
00000030: b433 7fbb 12a8 1fbb 15a7 97bc ade4 d5bc
00000040: d932 263d a2cf a5bc 3fb9 40bc 3d6a cdbc
00000050: eee0 243d 4e9f cbbc 78e6 053c 3918 9bbc
00000060: 738e 6fb9 560b b7bb cc2a 683c 09f0 a8bb
00000070: 2c70 1abc 23b5 e2bc c379 3cbd b11f 41bd
00000080: e763 3c3c 76cb b9bb 80c0 f8ba a733 d43c
00000090: 71bc e0bb 9c16 15bc 0b5c 20bd 19b0 f2bc
000000a0: d363 973c c6ce 123c 35dd 7cbb 377d f83b
000000b0: 8e3a 25bd 4b28 27bc 0034 60bc aee5 99bb
000000c0: ae99 a5bb 5c1b 0c3c 109f ebbc 0919 993b
000000d0: f98a 41bc 74d6 993c 46d6 c1bc 19ab 94bb
000000e0: c10d 003d 9544 9ebc 8c4b 83bb b1a9 e7bb
000000f0: 9d60 223c 13dd 95bc 4e4b 1fbc 16b1 d73b
0.018086946 -0.0112725 -0.009589955 -0.006334779 -0.047036525 -0.0020750137 -0.019396983 -0.022959078
-0.013318261 -0.01563572 0.042118996 0.030466316 -0.003894073 -0.0024361652 -0.018512288 -0.026110018
0.040575836 -0.020240609 -0.011762916 -0.025075072 0.040253572 -0.024856236 0.008172624 -0.018932449
-0.00022845883 -0.005586068 0.01417036 -0.0051555675 -0.009426158 -0.027674263 -0.04601456 -0.047149364
0.011498428 -0.0056700064 -0.0018978268 0.025903536 -0.0068584015 -0.009099629 -0.03915028 -0.029624986
0.018480217 0.008960431 -0.0038583998 0.007583286 -0.040339045 -0.010202478 -0.013684273 -0.0046965694
-0.0050537204 0.008551445 -0.02876237 0.004672174 -0.011812919 0.018779017 -0.023661744 -0.004536998
0.031263117 -0.019319812 -0.0040068086 -0.0070697893 0.00991073 -0.018293893 -0.009722544 0.0065823896

layer3.0.weight f4 [64, 768]
00000000: 695c 5bbd 4f18 abbd 3f6a 20bc 0028 4fbe
00000010: df80 afbd 8986 a3bd f285 8fbc ffcc 8ebd
00000020: 380c 16be 1785 e9bd 76ef 87bd 3719 3fbe
00000030: 7d6e a1bc 4a69 0c3e 0ccd dfbd 3bcc 2fbd
00000040: f82b e43d 83e9 a13d 4cba 93bc 87d1 0c3e
00000050: 78c7 233e 1022 4c3d 0c19 b33d 09f1 0a3e
00000060: 8cb7 83bd 655b 53bc f187 89bc d7c6 16bc
00000070: d31c d3bc c087 cfbb dac8 2cbd 25d8 403d
00000080: d50e 183d f995 bcbd d748 ff3d 4e22 183c
00000090: f042 ac3d 7573 dc3c f3b0 39bd 3be2 833d
000000a0: d247 153c bffb 61bd 5490 5dbd 89b3 c8bc
000000b0: d60a 8c3d 152b 963d a15f 7bbd 464a 953d
000000c0: fd68 3f3d bb46 633d ef5a 67bd e9ae 923d
000000d0: 8df4 1e3d 914d bdbd 3a3d a8bc 1c6f 1d3d
000000e0: 9568 813d 97d5 c9bc c771 e1bc f4bd 7c3d
000000f0: ce12 c83c 2245 0cbd c5a9 8e3c 2c60 2c3d
00000100: 4c65 86bd 3c78 863c 7487 3ebe 5df3 493d
00000110: d337 5dbd bf19 86bd 6728 dcbd e832 6abc
00000120: 326d 5bbd 943f 4b3d 8690 393d 3298 6e3c
00000130: dd68 06bc b815 b7bb 0de1 6abd 4ba6 a9bd
00000140: f590 57bd aa04 183c 930b 863d 05fa 9dbd
00000150: 29ea e23d acb0 9ebd 7ab7 2cbe 2e18 19be
00000160: 3a11 823a 566c 9b3d 572e 11be 503d b63c
00000170: fdc3 b8bc 5ff6 34be ede6 7b3d 848d 7c3d
00000180: 7c19 d9bd 8e35 663c f50c 48bd 5850 113d
00000190: e5da 72bd 8a9c 59bd 85b3 8ebd 9706 88bd
000001a0: 5dfd 3c3d 4823 03be aa34 a13d 8705 b3bc
000001b0: 13d8 a73c 7c45 40bd 84fb 4dbd 172d d0bd
000001c0: 7080 dc3c d9bf 7e3d 235f 65be 7180 50bd
000001d0: 7597 5bbd 0c7b ccbc ab91 86bd f6d0 8c3d
000001e0: 2def 9b3d 9897 bc3d 3c75 b03d 82ce e7bc
000001f0: 7ac5 d3bb ec5c 693d bab4 f13c 2228 0d3e
00000200: 6b4e f63c 6110 9ebb 0e24 833d 7568 863c
00000210: 23a7 a9bd b4a3 a33d efb8 f33d 4153 a43d
00000220: ff8e ff3c a551 3fbc 13a9 b1bc 4da4 e73b
00000230: 0e3d e73d c40d 663d c94c c73d 87d2 053c
00000240: 2584 363d 8e77 83bd c013 ebbc eeaa abbc
00000250: 82fe 663c d695 9f3d e950 1a3d 3267 00be
00000260: 9337 9c3c 2634 893b ed34 303d 4d4a e5bd
00000270: c358 ad3d 4339 003c 2fe2 4bbc a1e7 a33d
00000280: 9177 e0bc 579c 93ba f3b9 2fbd 0b31 51bd
00000290: 473b 68bc 5206 a9bd 42c9 9bbc 4a93 75bb
000002a0: d980 10bd 2f40 bdbd 6d23 8abd 348a 9abd
000002b0: 4593 0abd 9c16 26bd c8fc f2bb edd8 6e3d
000002c0: 16d6 a1bc 6ae6 9abd 5174 143e 4bca 82bd
000002d0: 2cef afbd d813 66bd 09f9 70be 3711 4dbd
000002e0: ac1e 5b3d 2de2 cebc 9ea2 b7bd 6a48 93bc
000002f0: 204e 2a3d d85a eebc 1c7d 43bc 1e6c c0bd
00000300: 9aac aabb 76f8 db3d eeeb db3c 0f42 9b3d
00000310: fd3b 073d 40e6 283d d021 223c b47f 023e
00000320: 8880 f23d 449b 24bd eebb be3c 2ef9 913d
00000330: f383 8dbc 3608 9c3d a1bc eb3d 451d 733d
00000340: 90b2 ffbc 874e d33d e357 f93c c166 afbd
00000350: ad26 24bd 1bfe 133c 4c0b f63d 6efc 9fbd
00000360: 9101 aa3d a43c 543d 8b39 1d3c 5bad 03bd
00000370: 7ac9 2e3d 0afa 2abd 109e 993d 2b2c 273d
00000380: 1f72 483c 1deb b6bc 8146 873c a836 db3c
00000390: d9cb bbbc c3c1 11be 01cc 13be ee78 a2bd
000003a0: a891 11bd 38d8 a9bd b30f 68bd 786c 1cbd
000003b0: 3154 8dbd b734 5ebc 32bd b5bd c7d4 e6bd
000003c0: 2721 ddbd 2544 b6bc 384f 4bbd f85a 99bd
000003d0: 35f9 06be e6be 6c3d 919e ea3c 502c 613d
000003e0: 0e1c c33d ffd2 e73a ece0 9fbc b0c5 353d
000003f0: f46d 633d 89ea 7bbd 1c72 cebd 8afd b1bc
-0.053554926 -0.08354246 -0.009790956 -0.20230103 -0.08569502 -0.07984645 -0.017519925 -0.06972694
-0.14653099 -0.11402338 -0.066374704 -0.18661962 -0.019706005 0.1371204 -0.109277815 -0.04291938
0.11141199 0.07905867 -0.01803317 0.13751803 0.1599406 0.049837172 0.08745012 0.1356851
-0.06431493 -0.012900208 -0.016788455 -0.009202681 -0.02577058 -0.0063333213 -0.042183734 0.04708113
0.03712352 -0.092082925 0.12465065 0.009285523 0.08411205 0.026910523 -0.045334768 0.064396344
0.009111362 -0.055171724 -0.05409272 -0.024499672 0.06838004 0.07332436 -0.061370496 0.07289557
0.046730984 0.055487376 -0.056483205 0.07162268 0.03880744 -0.0924331 -0.020537008 0.03843604
0.063187756 -0.02463798 -0.027520074 0.06170459 0.02442303 -0.034245618 0.017414937 0.042083904
-0.065622896 0.016414754 -0.18606359 0.049304355 -0.054008316 -0.065478794 -0.10749894 -0.014294364
-0.053570934 0.04962118 0.045303844 0.014562653 -0.008203712 -0.005587306 -0.05734353 -0.08283671
-0.052628476 0.009278456 0.06545176 -0.07713703 0.11079819 -0.07748541 -0.16866866 -0.1495063
0.0009923347 0.07589023 -0.14177833 0.022246033 -0.022554392 -0.17672108 0.061499525 0.061658397
-0.10600564 0.014050854 -0.04884048 0.035477012 -0.059290785 -0.053127803 -0.069678344 -0.06641882
0.046140064 -0.12806427 0.07871373 -0.021853222 0.020488774 -0.046941265 -0.050288692 -0.1016485
0.026916713 0.06219468 -0.22399573 -0.05090374 -0.053611238 -0.024961017 -0.06570753 0.06875794
0.076139785 0.09208602 0.08616111 -0.028296713 -0.00646275 0.056973383 0.029505122 0.1378484
0.03006669 -0.00482373 0.06403361 0.01640723 -0.08283832 0.07990208 0.11900508 0.08023692
0.031196116 -0.01167718 -0.021687066 0.0070691467 0.11290942 0.05616547 0.097314425 0.008167869
0.044559617 -0.064192876 -0.028695941 -0.020955529 0.014098765 0.07792251 0.03767482 -0.12539366
0.019069469 0.004187125 0.043019224 -0.111958124 0.084641956 0.007826152 -0.012444063 0.08003164
-0.027400764 -0.0011261803 -0.042901944 -0.05107216 -0.014174289 -0.08253159 -0.019016866 -0.0037471824
-0.03527913 -0.09240758 -0.06745038 -0.075458914 -0.033831853 -0.040548906 -0.007415388 0.058312345
-0.019755404 -0.07563479 0.14497496 -0.063862406 -0.0859054 -0.05617127 -0.235325 -0.050065245
0.053496048 -0.025254333 -0.08966564 -0.017978866 0.041578412 -0.029096052 -0.011931684 -0.09395622
-0.005208564 0.107407495 0.026845898 0.07580959 0.033016194 0.04123521 0.009895757 0.12744027
0.11840922 -0.040187135 0.023282971 0.071276054 -0.017274832 0.076187536 0.115105875 0.059354085
-0.031213075 0.10317712 0.030437415 -0.085645206 -0.040075947 0.009032751 0.120138735 -0.07811819
0.0830108 0.051815644 0.009596239 -0.032147747 0.04267261 -0.041742362 0.07500851 0.040813606
0.01223424 -0.022328908 0.016513111 0.02675946 -0.02292435 -0.1423407 -0.1443329 -0.07933222
-0.0355393 -0.082931936 -0.056655597 -0.03818938 -0.06900824 -0.013562373 -0.08873977 -0.11271053
-0.10797339 -0.02224929 -0.049636096 -0.07488054 -0.13181002 0.057799242 0.028640063 0.0549739
0.095268354 0.0017686783 -0.01951643 0.044377983 0.05552478 -0.061502967 -0.100803584 -0.021727342

layer3.0.bias f4 [64]
00000000: 7e64 bd3d a04e 0dbc 490f 12bc 9879 9f3c
00000010: 6b0f d2bc 5ccd 50bc 7586 683d 000e 983d
00000020: f491 353c 5945 0b3d 1465 d43c c4aa 64bc
00000030: 4eca 24bc a751 ceba adfd b93b 14c7 16bc
00000040: d043 d0bc e6ed bc3d 9c6f 85bc c7ce 98bc
00000050: e319 8a3c 8b13 41ba 51a7 c2bc 9137 ecba
00000060: 8b32 fdbc e62d 9639 db34 1dbc 63dc 05bd
00000070: 6d79 9ebc 4c8c c73a 27ce 273b e920 be3b
00000080: c9e9 2ebc 0c33 b63d 6c40 e83c ec74 c0bc
00000090: c241 723c 863d 093c 0053 983b a3a5 3bbb
000000a0: 349b 183c 3a79 9abc bf58 2b3c a0e9 283c
000000b0: 0396 05bd 20fb cb3b 4339 7fbc 0e2e 9e3d
000000c0: b3a8 3cbc 67e3 b63b 6ab6 f1bc f0dc 4dbc
000000d0: 144c e9bc bb23 393d 20d5 673d 0d43 3e3d
000000e0: 739d f73c dc81 623c 354c 433c 9d05 b4bc
000000f0: 2243 6ebc 722e 593d 419e 2fbb 4233 4fbb
0.09247683 -0.008624703 -0.008914777 0.01946716 -0.025642117 -0.012744274 0.056768853 0.07424545
0.011082161 0.034001682 0.025927104 -0.013956729 -0.010057999 -0.0015740887 0.0056759925 -0.009202737
-0.02542296 0.09225063 -0.016288571 -0.018653287 0.016858047 -0.0007365278 -0.023761423 -0.0018021931
-0.03090789 0.00028644426 -0.009595121 -0.03268088 -0.01934501 0.0015224307 0.0025605054 0.005802263
-0.010675856 0.08896455 0.028351031 -0.023493253 0.014786186 0.008376485 0.0046485662 -0.0028632663
0.009314347 -0.018856633 0.01045817 0.010309607 -0.032613765 0.006225005 -0.015577617 0.07723628
-0.01151483 0.0055813077 -0.029505927 -0.012564883 -0.02847866 0.04520009 0.056599736 0.046450663
0.030226445 0.013824906 0.011920025 -0.021975333 -0.014542373 0.05302281 -0.0026797208 -0.0031616245

layer4.weight_ih_l0 f4 [96, 64]
00000000: c1a5 88bd 570c 0c3e a810 8cbd 7bd5 823d
00000010: dd50 a6bd cd90 3b3b e2b5 c8bd 9464 503c
00000020: 03ae 8abc 14e6 843c 6bbd 63be 6d91 2bbb
00000030: 7a2e 5a3d 41b0 ac3c 5949 debd 63a6 543d
00000040: 2c5f 283e c838 04be 2725 ffbd 6bfb a5bb
00000050: c21f f23d 6d05 d3bd 3ad9 31bc 4e17 9d3d
00000060: 0644 9b3d 250a 8b3d 476c 64be aba0 1f3e
00000070: f3a2 2c3e 9a57 2bbe 84b9 bd3d 048c c5bc
00000080: 94a7 073e 839d 6a3d 99bc 8ebe 7189 08bd
00000090: fa90 9dbd be67 81bc 36d1 88bd 42e8 02be
000000a0: 8220 af3d 4e2c 47be 1d4d 84bc 715b 6ebd
000000b0: e8ad 263e d125 72be cc12 42be 30cb 07be
000000c0: 66ca 4c3e a19e ea3c ea2d 77bc 7fa8 9ebd
000000d0: e814 f03d 5078 213d 2301 e9bb 5f5d 64bc
000000e0: 8bc2 79be d226 2ebe 7d7a b8bd 1cf8 ffbd
000000f0: 44f2 5f3d 0b13 dbbd 36b4 923e 26e1 c3bd
00000100: 712e 433d cb0b 8c3e b7e3 bb3d 383c 993c
00000110: db61 3abd a5e6 c0bc 2ce8 a1bd e357 ab3e
00000120: 15df e13d c0ad 08bc 7f18 993d 00f0 013e
00000130: 9648 29be c05f a73d f66d 49be 1c71 a43d
00000140: 0b1a 843e 1fe7 d73d f28f 3d3d 7070 913c
00000150: 8736 ec3c 4093 6f3e 4cee ed3c 79e4 043c
00000160: 0cea b93e 539a 8b3d 8390 ab3d d9ff 2e3d
00000170: 2acc f1bd 2794 033e 274e a33c fb1f 2d3e
00000180: 7099 35be 2567 223e cb61 ccbb f01a 103d
00000190: 5f25 423e b5f8 1d3e ba23 303b 53a6 b6bd
000001a0: 507a d13e 0910 36bc 7fad ab3e d8bd e73d
000001b0: 0ab2 bd3e 6036 513d 8747 a83e e2ee a93e
000001c0: ce84 bd3e 4999 353e ab15 af3c 9458 35bd
000001d0: 7fd6 f13d daff bf3d a3bd 183e b0af ad3e
000001e0: ef6f 0a3e bfa2 a9bd 1431 3dbc caa1 00be
000001f0: 89d7 4f3e 0a75 a23d eba9 443e 7983 a23b
00000200: 5e6b 933e e621 973e 99cb 2b3e 3d97 97bb
00000210: b3a3 fd3d 5bc0 8f3e daf5 21bd 71ce 623e
00000220: 5dcb 1dbe cdc6 093e f7c5 0a3e ab0b 093e
00000230: e641 91bc 5858 3cba 7514 5d3e 378a 9b3d
00000240: ee32 d4b9 7808 bebb a8d7 25be 761f 663e
00000250: c543 c53c c598 b83e 575a 313d 7540 453e
00000260: 4851 f53d a975 a2bd ee57 6e3e 8e53 ab3d
00000270: 1eb7 eb3d 8a3a 673e 8d76 613d 358c d4bd
00000280: 939c e23b ae85 eb3d 8e2f a83e cd73 803e
00000290: f073 8a3e d319 113d c5f1 aa3e e407 8c3e
000002a0: f02c 01bd b3e4 e6bc eff4 123e b1c0 38bd
000002b0: a0c5 09bd 3731 33bc e191 3cbd e42d 713e
000002c0: 78a1 933e bf27 813e 5575 803e 6bfb 243e
000002d0: 880e 50bd 2986 923e 0447 8c3d 4d98 dcbd
000002e0: a43a 493e 8334 07bd 8940 073e 0758 d53c
000002f0: e5e3 663d 905f 273e b294 243e 8c6f f7bc
00000300: 3047 94bd 6b1d 743e bfa0 443e cbfd 2b3d
00000310: d60a 233e f2f3 51bd e6f3 74bd cc27 223c
00000320: 8d5c 5f3d bc6c 63bd 2167 ec3d f421 e73d
00000330: dbf0 de3d a193 8ebe e3f4 0dbe aabf 12bc
00000340: 4307 ad3e 777b 683e 9616 883e dd99 093e
00000350: 48a7 d13d 12bb ebbc fa08 8d3d 97a7 a73d
00000360: a7f2 2b3e 421a ccbd 9b41 62bd ae52 39bd
00000370: 160c 783d aa4f 42bd fea3 d73d 99b7 1fbe
00000380: 6f19 13be 84dc de3d 224c c53e 094a b53d
00000390: d7cb c83d c971 30bb b268 d53c 67e6 36be
000003a0: c6ed 0b3e 0949 7dbd 7dc0 3b3e 0b72 2b3e
000003b0: 8ea6 08bd d26f a93e 2a80 103e a0c1 a63c
000003c0: f32a b73d 8b6c ef3d 32ef 21bd 5007 3bbd
000003d0: 41f2 633e 2782 9d3e e8d2 b33c 1308 543e
000003e0: e347 343d c5ff 143e 6f67 743a 0120 353e
000003f0: e0d8 aa3e cc7d 9f3d c4ee 093e 0854 56bd
-0.0667224 0.13676582 -0.068391144 0.063883744 -0.08120892 0.0028620244 -0.098003164 0.012719292
-0.016928678 0.016222991 -0.22240226 -0.002617921 0.05326698 0.021080138 -0.10853834 0.05191649
0.16442555 -0.12912285 -0.12458258 -0.0050653717 0.118224636 -0.10303769 -0.0108550135 0.07670461
0.07581334 0.06789044 -0.2230693 0.15588634 0.16859035 -0.16732636 0.092639 -0.024114616
0.1324752 0.05727912 -0.27878264 -0.0333342 -0.07693668 -0.015796538 -0.06680529 -0.12783912
0.08551122 -0.19450495 -0.016150052 -0.058192674 0.16277277 -0.23647238 -0.18952483 -0.13261104
0.19999084 0.028640093 -0.01508663 -0.07746982 0.117227376 0.03942138 -0.007110731 -0.013938277
-0.24390619 -0.17006996 -0.09007738 -0.12498495 0.054674402 -0.106969915 0.28653115 -0.09564428
0.04765171 0.27352747 0.091742925 0.018705472 -0.04550348 -0.02354748 -0.079056114 0.3346549
0.11028878 -0.0083422065 0.074753754 0.12689209 -0.16531596 0.0817256 -0.19670853 0.080293864
0.2580112 0.1054213 0.046279855 0.01775381 0.028834594 0.23396015 0.029044293 0.008111113
0.36311376 0.068165444 0.08377173 0.042724464 -0.11806519 0.12849484 0.019934727 0.16906731
-0.17734313 0.15859659 -0.006237244 0.03518194 0.18959568 0.15426905 0.0026876763 -0.089184426
0.4091363 -0.0111122215 0.33530805 0.11315507 0.37049896 0.051077247 0.3286707 0.33190066
0.37015384 0.17734255 0.021372637 -0.044273928 0.1180849 0.09374972 0.1491609 0.339231
0.13519262 -0.082829945 -0.011547346 -0.12561718 0.20297064 0.0793248 0.19205444 0.0049595204
0.28792852 0.2951805 0.16776885 -0.0046261833 0.12384739 0.28076443 -0.039541103 0.22149064
-0.15409608 0.13454743 0.1355208 0.13383357 -0.017731618 -0.0007184795 0.21589835 0.07594722
-0.00040473737 -0.0057993494 -0.16195548 0.22472939 0.024080167 0.36054054 0.043299045 0.1926287
0.11978394 -0.07932598 0.2327573 0.08365546 0.11509536 0.22580925 0.0550447 -0.10378305
0.0069156378 0.11500107 0.3284878 0.2508835 0.27041578 0.03542502 0.3338758 0.2734977
-0.031536996 -0.028185224 0.14351247 -0.04510564 -0.033635736 -0.010937027 -0.04603756 0.23552662
0.28834128 0.25225636 0.25089517 0.16111533 -0.050795108 0.2861798 0.06849483 -0.107712366
0.19651276 -0.033009063 0.13208212 0.026042951 0.05636968 0.16345048 0.16072348 -0.030204557
-0.072401404 0.23839347 0.19201945 0.041990083 0.15922102 -0.051258035 -0.059802912 0.009897184
0.054531623 -0.05552362 0.11543108 0.11285773 0.10885783 -0.27847007 -0.13862948 -0.008956829
0.33794603 0.22703348 0.26579732 0.134376 0.102369845 -0.028775726 0.06886478 0.08186262
0.16791783 -0.09965946 -0.055238348 -0.045244865 0.0605584 -0.047439255 0.10529326 -0.1559738
-0.14365171 0.10881904 0.38534647 0.08852012 0.09804504 -0.002692329 0.0260509 -0.17861329
0.13664922 -0.06183723 0.18335147 0.16742723 -0.033361964 0.33093125 0.1411139 0.020356
0.08943739 0.11690625 -0.039534755 -0.04566127 0.22260381 0.3076336 0.021951154 0.20706205
0.04401387 0.14550693 0.0009323274 0.1768799 0.33368587 0.07787666 0.13469988 -0.052326232

layer4.weight_hh_l0 f4 [96, 32]
00000000: 4232 ab3c 0a91 1abe e583 f2bd 7d98 2b3e
00000010: 88af 4e3c 95a4 e2bd 3649 823e ed3f 733d
00000020: 9237 9c3d 8aa6 7ebe 7579 413e 5c3d 32be
00000030: 96d8 653e 2df3 b1be 84f7 54bd 44d0 c6bd
00000040: a9fa 583c 79b3 8e3d f77f 773d 728d 683e
00000050: ed9d ea3d ca91 49be 5505 163b ad0f 81bd
00000060: 8898 973e d494 943e cb4f 353e d217 c93c
00000070: 3ce6 adbd 92dd 3a3e 8427 e83d 64db a73d
00000080: 087a 2f3e d001 6fbe 880b 253d 1df0 06be
00000090: 683f 7bbd ba49 483d a7e3 79bc e941 ddbd
000000a0: fee3 4fbc 9605 01be e54f ce3d aebf 9fbc
000000b0: a2f7 a0bd 8ed1 26be 5667 3a3e c741 5b3d
000000c0: ba48 7c3d 99db e33d 141a 58bb d119 393e
000000d0: c4f5 cd3d 0c0a 03be d81b b9bd bc66 a1be
000000e0: b139 7a3a 147f 39bd cb97 e43d 7053 65bd
000000f0: fc26 02be bd7b da3c 4fb7 1f3e f395 503c
00000100: 0b8e 00be d843 07be 316a ebbd 6328 9d3d
00000110: 2178 363e 82cb 01be 3584 30be 722c b33d
00000120: a630 42bc 52ef 69bd 781e 23bd e6d8 4fbe
00000130: aba6 9dbd b3f0 e4bb cb79 2dbc 07e9 e73d
00000140: f1a7 103e f608 55be 2ce4 243e 5965 023e
00000150: d064 b8bd 94a8 a5bd 0534 12be 6ed0 bcbd
00000160: 79b3 223d 8cf3 113d 07a1 1d3e 3cb0 4ebd
00000170: 366a 22be 3e03 a4bd 8d6f 2f3e 3e56 2e3e
00000180: fb45 733e 73a7 40bd 24d3 8d3e fa99 adbd
00000190: ceb5 a23d 125c 1b3f e913 d7bd f227 7c3e
000001a0: 5f7e ccbc 885d 033d 8473 6ebe 3fc5 da3d
000001b0: 60be 2c3e 2b6e ee3d 978b 943d dbbf 80bd
000001c0: a5a0 3dbe 9e50 093e eb22 873e 72aa 883d
000001d0: 9ff2 f03d 7261 af3d 939c 2fbe daa2 6a3e
000001e0: 5792 c73c f4e2 23be 40e0 4e3d 3f0d 20be
000001f0: da31 2a3e 9103 983c 40ca 1c3e d879 92bd
00000200: 7ac7 2dbe 87f6 6d3d 25ba 843c 84a5 fc3c
00000210: b779 c7bd 00e3 683d b8d0 fcbd a977 63bd
00000220: 8f19 87be c2ed 203e ddf1 d2bd 46dc 213d
00000230: 7e44 a5bd f115 d0bc ac6f 5cbc 10da 033e
00000240: 0525 9dbb 52fa 4abe d51c 103e 2a06 e03d
00000250: c028 5c3d 3ab7 a63d 8be8 eebc f597 92be
00000260: c105 8e3d 5a78 34be 9ffc 383d f780 803e
00000270: 1a04 923c 6379 99bc 5e1c 0dbd c2db f43b
00000280: 4086 283e 874e 973d 4beb ae3c b0ae 673d
00000290: 69f1 343e acf5 9cbe 0579 0dbe 38b3 80bd
000002a0: ceff 2a3d 4563 c1bd 558c 87bd ec61 e8bc
000002b0: 8fc9 423e 2741 9a3e c63b 2b3d 5a50 383d
000002c0: d08b 4a3e a45f b63e 649b fabc ea19 b1bd
000002d0: 30f3 82bd 6a41 abbe ca8c 163e 6370 8ebe
000002e0: 8ca6 f4bd bbaa 44be 714e 373e 40a9 523e
000002f0: 40ee fd3d fc05 9d3d 7c57 443d ea6b d83d
00000300: 70f0 9e3e b280 bbbd d288 023e 68a7 683d
00000310: 52ee 51bd d04b 823e b1f3 f9bd 2e65 e7bd
00000320: c4c6 ddbd 9e28 28be eaa3 75bb bf79 ebbd
00000330: 7623 853e 57e6 6ebc 4f93 163e e956 243e
00000340: 409d 6cbd 9727 5b3e 89f7 8ebd 8c88 493e
00000350: 9477 fb3d 77e7 353e 6fdb fe3c f11b 993c
00000360: 6e81 6d3e b0ff 973e 90af 55be 8558 b33d
00000370: 9e75 9cbd ac5d 803e c463 1a3e bc9a 41bd
00000380: d45a 923e 76f6 483d 92b9 ad3e 6362 77bd
00000390: 7948 0dbd c385 223e d39a 11be 08e1 ad3e
000003a0: 3be1 a13e 5622 283d 7394 693d ec04 413d
000003b0: 05e3 043e 2741 503d 5ec3 80be 7a6b d0bc
000003c0: c770 a0bd 0891 2b3e e633 643d 194d 3e3c
000003d0: e6a4 593b c632 f93c e0d7 d23d 6e94 273e
000003e0: d2fa 8dbe 8671 b83e d86e 12be c04b 80bd
000003f0: c5df 1dbe 12db 8a3d 2883 033e 2502 a8bb
0.020897988 -0.1509439 -0.11841563 0.16757388 0.012615092 -0.11066548 0.2544648 0.059387136
0.07627787 -0.24868217 0.18893988 -0.17406219 0.22445902 -0.3475584 -0.05199386 -0.09707692
0.013243356 0.069678254 0.06042477 0.22710207 0.11455903 -0.1968452 0.0022891362 -0.06301818
0.2960856 0.29019797 0.1770622 0.024547491 -0.08491179 0.18248585 0.11335662 0.08196142
0.17136395 -0.23340535 0.0402942 -0.13177533 -0.061339766 0.048898436 -0.01525203 -0.10803587
-0.012688635 -0.12599787 0.100738324 -0.01950058 -0.07859732 -0.16290876 0.18203482 0.053529527
0.061592795 0.11125869 -0.0032974528 0.18076254 0.10056642 -0.12796801 -0.09038514 -0.31523693
0.000954534 -0.045287207 0.11161765 -0.055987775 -0.12710184 0.026670331 0.1559727 0.012731063
-0.12554185 -0.13209474 -0.11494864 0.07673719 0.17819263 -0.12675288 -0.17237933 0.08748712
-0.011852419 -0.057113 -0.03982398 -0.20297584 -0.07697805 -0.0069867014 -0.01058812 0.11323743
0.14126565 -0.208042 0.16102666 0.12733974 -0.090036035 -0.08088794 -0.14277656 -0.09219442
0.03972194 0.035632655 0.15393458 -0.05046104 -0.15860829 -0.08008431 0.17132397 0.17025086
0.23757164 -0.047034692 0.2770015 -0.08476634 0.07944833 0.60687363 -0.105018444 0.24624613
-0.024962602 0.03207162 -0.23286253 0.10682153 0.16869497 0.116421066 0.07253187 -0.062865935
-0.18518312 0.1340966 0.26393828 0.06673135 0.11765026 0.08563508 -0.17149572 0.22913685
0.024361772 -0.16004544 0.05050683 -0.15630053 0.1662058 0.018556388 0.15311527 -0.07152146
-0.16970626 0.058096435 0.016202042 0.030840643 -0.09740012 0.05685711 -0.123444974 -0.05553404
-0.26386687 0.15715697 -0.10300038 0.03951671 -0.080697045 -0.025401087 -0.013454359 0.12876153
-0.004795673 -0.19822052 0.14073499 0.10938676 0.0537498 0.081404164 -0.02916362 -0.2863156
0.06934691 -0.17624035 0.045162793 0.25098392 0.017824221 -0.01873464 -0.03445088 0.0074724862
0.16457462 0.07388025 0.02135243 0.05656308 0.17670216 -0.30656183 -0.13815697 -0.06284183
0.04174786 -0.09442762 -0.06618563 -0.028367005 0.19022201 0.30127832 0.04180505 0.044998504
0.19779897 0.35619843 -0.030591674 -0.08647521 -0.063940406 -0.33448344 0.14702144 -0.2782012
-0.11945829 -0.19205754 0.17901017 0.20572376 0.12398958 0.07667157 0.047934994 0.10567458
0.31042814 -0.09155406 0.12747505 0.056800276 -0.05125267 0.25448465 -0.122046836 -0.11298595
-0.10828927 -0.16421744 -0.0037481734 -0.114978306 0.26003617 -0.0145812845 0.14704631 0.16048779
-0.057767153 0.21401821 -0.06980807 0.19680995 0.12278667 0.17764078 0.031110493 0.018690081
0.23193905 0.29687262 -0.20867753 0.08757118 -0.07639621 0.25071466 0.1507712 -0.047266707
0.2858492 0.04906317 0.3393064 -0.060396563 -0.034492943 0.15871339 -0.14219217 0.33960748
0.3161715 0.04104837 0.057026338 0.047123834 0.12977226 0.050843384 -0.25149053 -0.025441874
-0.078340106 0.16754544 0.055713557 0.011615061 0.003320986 0.030419718 0.10295081 0.16365215
-0.27730423 0.36024112 -0.14300096 -0.06264448 -0.15417393 0.067800656 0.12843001 -0.005127209

layer4.bias_ih_l0 f4 [96]
00000000: c12d 24be cdd6 5a3e 876c e5b9 4244 083e
00000010: e217 563d 0a24 813d 1dae 073d 8a2c 88bd
00000020: 5909 6a3d 9e7b a43d 536e 3e3e 9b63 98bc
00000030: 9d04 403d b1dc 123d 3c4f 613e 58c7 4d3b
00000040: ce89 c03d 94fe 8dbc ed7d acbd 51b1 bf3d
00000050: 976a d73b 238a 60bb 4e51 633e 5408 39bc
00000060: a4b9 283e ec68 57bd 8503 2c3e f894 e43d
00000070: 962b a5bd b2bd 013e 9303 ae3e 6c95 1dbe
00000080: 6b72 53bc 6812 9f3b f3de 7dbd a120 42be
00000090: e9a5 72bd f8f8 9f3d f6fc 4f3b 05d9 2fbd
000000a0: 9ed8 e73d 4ff1 023f c141 bb3b c3c1 b1bc
000000b0: b5e8 783e 1ca7 303e feb4 4fbe 8027 593d
000000c0: 04a0 9b3d 994f 2b3d 62dc e43c 642c b23b
000000d0: d820 3a3e b0c2 36be 24d4 6f3e 03e7 f9bd
000000e0: 6863 863d 45ad 8dbe 2181 b13e 465c 413e
000000f0: b7a7 d03d 21a3 6bbd 95ad 683d 8bc6 193d
00000100: 7e4e 45be afe0 793d 476c fc3d a8e8 53bd
00000110: 5c9c fb3d bad3 983d 5572 adbd 5633 06bd
00000120: a582 c8bc bb81 92bd a828 db3d a581 0fbe
00000130: ee77 7fbe b68f c7bc 8de9 aebc 0d76 a0bd
00000140: 6677 4c3e 445b 40bd b51f 88be 2dab ccbd
00000150: f095 f9bb 8a8e 46be 0504 b5bc c44b 153d
00000160: 65af 153d c8ba a53b 4136 523d 8b7b 9a3d
00000170: c06e b73d 61bd 2b3d 8242 51be 02ca 693e
-0.16033079 0.21371002 -0.00043759143 0.13307288 0.05226887 0.06305702 0.03312503 -0.0664912
0.05713782 0.080313906 0.18596773 -0.018602183 0.0468794 0.035855 0.22002882 0.0031399336
0.09401284 -0.017333306 -0.08422456 0.09359992 0.006573986 -0.0034262023 0.22198984 -0.0112934895
0.16477066 -0.052590296 0.16798218 0.11161226 -0.08064954 0.1267002 0.33987102 -0.15389031
-0.012905697 0.004854489 -0.0619802 -0.1895776 -0.059240256 0.07811159 0.003173647 -0.042931575
0.11320613 0.5114946 0.0057146256 -0.021698838 0.2430752 0.17251247 -0.20283887 0.053016186
0.0759888 0.041823957 0.027937118 0.0054374207 0.18176591 -0.17847705 0.23420769 -0.12202265
0.06561929 -0.27671257 0.3466883 0.18882856 0.10188239 -0.05752862 0.056806166 0.03754286
-0.19268224 0.06100529 0.1232534 -0.05173555 0.122856826 0.07462259 -0.08469073 -0.0327638
-0.024476359 -0.071536504 0.10701114 -0.14014299 -0.24948093 -0.024360519 -0.0213516 -0.078350164
0.19967422 -0.046962038 -0.2658669 -0.09993587 -0.007616751 -0.19390312 -0.022096643 0.03644921
0.036544222 0.0050576665 0.05132127 0.07543095 0.08956671 0.041928653 -0.20435527 0.22830966

layer4.bias_hh_l0 f4 [96]
00000000: 0459 193e 28a2 043d 16b9 0a3e b57c 053a
00000010: 45e7 713e 2693 a43d afe6 41be 2f58 1bbe
00000020: fbe8 c3bd 9727 66bd 2982 3b3e 2522 423d
00000030: 3c4f eb3d 5ff3 493d e8b5 e1bd 5dbc 113c
00000040: fe8c df3d 72f0 533e a6ac cf3d 2ed6 eaba
00000050: 07e2 90bc 53ba 653d 3c4e 57bd c4d3 b2bd
00000060: 4576 bb3d da55 523e 5052 af3e a0c3 0b3e
00000070: 8241 513e 8140 893d 55d3 7d3e 7060 44bd
00000080: ab2f cc3b b5dd a7bc a6a9 383e 806f 9abe
00000090: 5f3d 6c3d fff8 413d aca7 013d 82bb 07be
000000a0: a9b7 1c3e 5802 933e 2e57 953d 6dba 8b3e
000000b0: 2ce3 6b3e 18a6 b7bd 3fb0 83bc caef a53d
000000c0: 7304 823e 6f0d a83d 22b1 0fbc 3457 11be
000000d0: fb69 1b3e 9f2e bdbc a15e 1f3e 5f64 813d
000000e0: 5f5d 8f3d 6c6c 08be 273f 4f3e f459 8b3e
000000f0: 1304 4d3e a092 3fba 30b1 463d b9a9 f03d
00000100: 7718 33bd 3bcd c13d bbdc f6bd 482e ce3d
00000110: 5627 0d3e bebe 9abd f7a0 1a3e 3269 bebd
00000120: 88ce 733d 0eb2 163e 5571 6fbd 93eb 08be
00000130: 61bf 24bc 55b9 e4bd a94f ff3d 8435 41be
00000140: 8793 543e 7365 71bd f31a 943d 1cdf 853d
00000150: e0a7 843d da4b 18be c2cb 99bd 3996 10bc
00000160: 8487 00be 4afb e53d 7a22 d2bd 7603 2cbe
00000170: dff9 93bc 3567 10be 3f97 20be 1cdc 98bd
0.14975363 0.032381207 0.13547167 0.000509213 0.23623379 0.08035879 -0.18935655 -0.15170358
-0.09565922 -0.0561901 0.18311371 0.047395844 0.11489722 0.049304362 -0.11021024 0.008895007
0.10915564 0.20697191 0.10140352 -0.0017916614 -0.017685903 0.056085896 -0.052564844 -0.08731797
0.091534175 0.20540562 0.34242487 0.13648844 0.20435145 0.06701756 0.24787648 -0.047943532
0.0062312684 -0.02049146 0.18033466 -0.30163193 0.057675716 0.0473566 0.031654045 -0.13255122
0.15304436 0.28712726 0.07292019 0.2729067 0.23035878 -0.08967227 -0.016075252 0.08102377
0.2539402 0.08205687 -0.008770259 -0.14193422 0.15177147 -0.02309352 0.15563442 0.063179724
0.07000231 -0.1332261 0.20238934 0.27217066 0.20021085 -0.00073079206 0.048508823 0.11751122
-0.043724503 0.09462973 -0.1205382 0.10067421 0.13784537 -0.075559124 0.15100466 -0.09297408
0.059523135 0.1471636 -0.05845769 -0.13371114 -0.010055394 -0.11168162 0.12466366 -0.18868071
0.20759402 -0.05893464 0.07231703 0.06536695 0.06477332 -0.14872685 -0.07509567 -0.008824878
-0.12551695 0.1122957 -0.10260482 -0.16798195 -0.018063484 -0.1410187 -0.15682696 -0.074638575

layer4.weight_ih_l0_reverse f4 [96, 64]
00000000: 4c9e 1dbd 9d3c 5fbd 1603 e9bc 0121 8b3e
00000010: 13e5 c23d 6006 0d3d dfb5 c63d 030c 0ebe
00000020: d24f bb3d 8fd8 703d 4dc9 31be 8cec eb3b
00000030: 6f23 303e 6fe9 013e 1d30 213e d9ad d83d
00000040: 2bef 933d 568a d83d 73a7 5f3e f660 493d
00000050: fb6e 9abd 7a87 203e 0947 8d3d 0aa7 353d
00000060: 76ab d23e a16b 443e 4a4e 2bbe 03ca 97bd
00000070: 813b c8ba 2d86 1b3e 2d90 843d 7d36 343e
00000080: 940a cdbc 71b6 cebd 8ef4 133e 904e c73d
00000090: 01ce cbbc fc8f f63d 804d f93d 72c7 2abe
000000a0: 701e 3ebd c8ff 3bbd f0e9 16bc 1bd9 443e
000000b0: 64e5 413e 7513 953e e4ef b43d 016a 353d
000000c0: 87b3 9a3e 3c32 103e 9ca0 0b3e 5a9d 70bd
000000d0: 6b53 7d3d 4a37 fd3d e1d2 4abd 915e 573d
000000e0: bb66 a2bc 3dc1 873e 84e6 70bd c8c0 d5bd
000000f0: 2042 0c3e f804 f7bd 4e7a b73b a4fc 573c
00000100: 7a12 d73d 1fd7 423e b479 8a3d bacb 243e
00000110: 2350 0a3e ef28 4dbd bd12 713e 900a 063e
00000120: cb17 523e a1b8 88bc cd7c 963e 3453 9f3d
00000130: 2bdb d43d 85b9 f83d e257 903d 8a80 243d
00000140: 8873 163d 2029 f63d a027 cebd 644e 903d
00000150: 731b 803d 11e2 3fbe 6e5d 053e fa33 6e3e
00000160: 155d 873c c6b2 863d 2940 84bd d22e 043e
00000170: 1054 5abc b55f 5d3c 22e0 85bc 6847 dc3c
00000180: ae50 c23d be25 883e e94a 9d3e ec91 bbbd
00000190: a103 ddbd 95aa 223e 3768 96bd 7f4c 16be
000001a0: 8553 dbbd b25d 8abd 3089 e7bc 0dfe 5fbd
000001b0: cf2a d93d 1e49 a0bd d907 bcbd 2fa8 41bd
000001c0: eebf 75be 466c a93d 6348 e7bb 5eb1 103e
000001d0: d7fa 23be b61a 7e3d e199 493e 5cd7 2f3e
000001e0: c882 a3bc 6455 813c 7842 89bc a5cc 7d3d
000001f0: b7d0 0f3e 3e93 dcbc d26e 90bd d892 bcbd
00000200: 3479 8d3e b841 53be cfee b4bd da83 06bd
00000210: e3ff cabd 4259 d6bd 70f0 dd3d 9f9a 403e
00000220: 221e 96bd 69bd e03d 51bc ae3d 8cdd 9e3d
00000230: a7db 0fbe b708 1b3e f47d 0d3e 9ecc 3a3e
00000240: a147 f63d cd57 dc3d 05ab b3bd 377c 1dbe
00000250: eb8f 9abc 94a8 41bd 93e6 5cbe 2d13 80bd
00000260: d88a 6a3e b3bb 2abe e993 a63d f9ba 2a3e
00000270: 89dc 873d 8c97 083e 0700 90bd bbb4 9b3d
00000280: 4dd9 44be ad27 eb3d 040d a83d 5a65 733c
00000290: 6c58 753d 0708 9c3d e9db ce3c 8420 19be
000002a0: 4180 84bd d397 a9bd 80f2 3d3e 03b7 72bc
000002b0: 37fc 8c3d 4e9e bd3c 344e 6f3e 0866 8d3e
000002c0: 252c 9f3d b590 25be be45 15be 25d6 7d3c
000002d0: 1534 87bc db8d a73b 66fd 583d 1856 55bc
000002e0: 0940 013e ac57 b6bd fc26 a0be af5c 183e
000002f0: f74c e43d 5d43 923e 9c43 063e 1e5b ab3e
00000300: 66cb c0bd 9021 173d fba0 29bd 6b92 203d
00000310: 82c1 a6bd f5f6 193e bfeb ba3d 3d57 9b3d
00000320: 2673 e43d cf5c 8cbd de98 233d 7653 4b3c
00000330: ee6c 0bbe 8e3c 91bc 981d 1cbd 7fde dfbd
00000340: 6425 0abd 4682 5b3e b44f 4e3e 8a60 6d3c
00000350: 87f2 6bbd 2311 433e fda8 86bc 10cf f83c
00000360: a2df 683e 616c 713e 78ca 90bc fb9c 363e
00000370: 3ffd 0dbe 3a21 d43c ade3 e9bc 3a3b 50be
00000380: d2fc 323e d2c4 383e d0d6 4d3e a7a9 49bc
00000390: f37e a7bd 1e3d 723e e4cf 033e ac00 e3bc
000003a0: aa0e fa3d f469 953d 9888 cc3c 65ab 9cbd
000003b0: 9beb 8e3e 1921 29bc 20dd 51bd 06b6 533e
000003c0: 4c27 8b3e 6dad 903d 951a 243e 0446 0a3e
000003d0: c4ca ee3c 8b7b 173e f683 62bd 707d 363e
000003e0: 150f b23d 912e f9bc 7fc8 42bc b964 b13d
000003f0: f922 ecbd 801d 05bc 964e 473e b8ba 753d
-0.03848104 -0.054501165 -0.028443854 0.27173617 0.09516349 0.034429908 0.09702658 -0.1387177
0.09146084 0.058800276 -0.17361946 0.0071998294 0.17201017 0.12686704 0.1574101 0.10580034
0.07223352 0.105732605 0.2184122 0.049164735 -0.07540699 0.1567668 0.068983145 0.044348754
0.4114644 0.19181682 -0.16729084 -0.074115776 -0.0015276523 0.15187903 0.06472812 0.1759891
-0.025029458 -0.10093392 0.14448759 0.097317815 -0.024878504 0.120391816 0.12172985 -0.16677645
-0.046415746 -0.04589823 -0.0092110485 0.19223444 0.18935162 0.29116407 0.08834818 0.044290546
0.30215093 0.14081663 0.13635486 -0.058743812 0.06184713 0.12364061 -0.049517516 0.05258042
-0.019824376 0.26514617 -0.058813587 -0.10437161 0.136971 -0.120614946 0.0055992967 0.013182793
0.10501571 0.19027375 0.06761494 0.1609334 0.13507132 -0.050087865 0.23542304 0.13089967
0.20516889 -0.0166896 0.2939209 0.077795416 0.103933655 0.1214476 0.07048012 0.040161647
0.036731273 0.12019563 -0.100661516 0.07046202 0.062552355 -0.18738581 0.13023922 0.23262015
0.016523877 0.06577067 -0.0645755 0.12908486 -0.013325706 0.013511588 -0.016342226 0.026889518
0.09488045 0.26591295 0.30721214 -0.09158692 -0.10791708 0.15885384 -0.07344096 -0.14677618
-0.107092895 -0.06756152 -0.028263658 -0.05468564 0.10603868 -0.07826446 -0.09181184 -0.047279533
-0.23998997 0.08272605 -0.0070581897 0.1413016 -0.16013657 0.062037192 0.19687606 0.17171997
-0.019959822 0.015787788 -0.016755328 0.061962742 0.14044462 -0.02692568 -0.07052387 -0.09207696
0.27631533 -0.20630538 -0.088346116 -0.032840587 -0.09912088 -0.10466243 0.108368754 0.18808983
-0.07329966 0.10973627 0.08532012 0.077571005 -0.14048634 0.15140043 0.13817579 0.18242118
0.12025381 0.10758934 -0.08772854 -0.15379415 -0.018867454 -0.04727991 -0.21572332 -0.062536575
0.22904527 -0.16673164 0.081336804 0.16672887 0.066338606 0.1333906 -0.07031255 0.07602831
-0.19223519 0.11482177 0.082056075 0.014855707 0.05989878 0.076187186 0.025251346 -0.1495381
-0.06469775 -0.08280911 0.18549538 -0.014814141 0.06884044 0.023146775 0.23369676 0.27616906
0.07772092 -0.16168483 -0.14577386 0.015492951 -0.016504327 0.005113346 0.052976035 -0.013021015
0.12622084 -0.08903441 -0.31279743 0.14879106 0.111474924 0.2856702 0.13111728 0.33467954
-0.09413795 0.036897242 -0.04141329 0.039202135 -0.081423774 0.15035613 0.09126996 0.07584999
0.11154775 -0.06853639 0.039940707 0.012410035 -0.13615772 -0.01772907 -0.03811416 -0.1093111
-0.033727065 0.21436414 0.20147592 0.014488349 -0.05760434 0.19049506 -0.016438002 0.030372173
0.22741559 0.235765 -0.01767467 0.17833321 -0.13866137 0.02589475 -0.028550947 -0.20335093
0.17479256 0.18043831 0.20101476 -0.012308515 -0.081785105 0.23656127 0.12872273 -0.027710281
0.12209828 0.072955996 0.024967477 -0.076498784 0.27914128 -0.0103228325 -0.05123627 0.20674905
0.2717842 0.07064328 0.16025765 0.13503271 0.02914942 0.14793222 -0.05530163 0.17821288
0.08694283 -0.030417712 -0.011888622 0.086617894 -0.11530108 -0.008124709 0.19463572 0.059992522
