weights/final.pth (torch, 434251 bytes, 24 tensors)

layer1.0.weight f4 [32, 3, 3, 3]
0.030138921 -0.044472996 0.070577964 -0.0040813885 0.015219679 0.018821748 -0.018104965 0.013011585
0.008003387 -0.09666002 0.14777105 -0.16504198 0.09219343 0.18051186 0.10182713 0.037059188
-0.12300704 -0.09225158 0.1345975 0.016503615 -0.027914101 0.018132716 0.015052667 0.058696873
-0.123087205 0.040800747 0.08105283 -0.08168125 0.084260605 -0.08552943 0.04086416 0.08711688
-0.039004017 -0.021140259 0.0055157626 -0.010895071 0.00851051 -0.17097384 -0.07712737 -0.038788028
-0.085649066 -0.12732382 -0.2547126 -0.0739568 -0.16762356 0.007324895 -0.11333358 -0.20451994
-0.038755506 -0.0066591618 -0.1429645 -0.197402 -0.17798674 -0.12747097 0.10681387 -0.003963526
0.25280142 -0.123522006 -0.0049782735 -0.02923547 0.041655146 -0.047008514 0.013566742 -0.019151721
0.19056655 0.16636984 -0.017067865 -0.07994051 -0.039924644 -0.036519945 -0.12869675 0.084387004
0.067071795 -0.039497174 0.19877927 -0.13248713 0.01134782 0.08561032 -0.21106146 -0.07986856
-0.14541058 -0.055567052 -0.029288303 0.09354937 -0.11620133 0.036861 -0.07295936 0.013793321
-0.14770183 0.10347292 0.0043439236 -0.0025187344 -0.010221451 0.055557072 -0.0026250365 0.16446297
-0.16327465 0.08679821 0.06953748 0.08620444 0.14186768 0.0035711252 0.045953386 0.13745207
0.14874248 -0.09208049 -0.054887813 -0.09293219 -0.05775154 -0.05020547 0.12241241 -0.24277113
-0.10441061 0.19917442 -0.22123191 -0.076948136 0.16984063 -0.24041437 0.096791476 -0.035174884
-0.17868252 0.08299509 0.10116079 -0.15841983 -0.10220245 0.20017186 -0.09323668 0.12940568
-0.02018212 -0.13263072 0.10341152 0.14150964 -0.03391195 0.089456804 0.17957565 -0.14453301
0.10224253 -0.13957806 0.06355024 -0.036353808 0.10621027 0.06322241 -0.1898061 0.14980909
0.016744046 0.021473017 -0.006919564 0.024694586 0.049920514 -0.0735535 -0.02304845 -0.08862463
0.1863074 -0.017600581 0.16098069 0.015412775 -0.07840142 -0.032989185 -0.049393356 0.06428358
-0.24955358 0.10713673 -0.20607542 -0.1892745 -0.20247687 -0.13836616 -0.0522367 -0.076830335
0.1705144 0.25909913 0.27241704 -0.067559846 -0.18952009 -0.21791895 -0.1750257 0.06754938
0.01948876 0.19006903 0.2828397 0.093733236 -0.2439112 -0.22363205 0.019145316 0.080104865
-0.13748299 0.09080592 0.10764483 0.13294353 0.28053388 -0.020426797 0.04827647 0.11927383
0.1361789 -0.03627133 -0.110082805 0.028264962 -0.003119941 0.07024566 -0.16960703 0.15386973
0.024973895 0.16794072 -0.14428252 -0.13134938 0.028273085 -0.08667023 -0.008671192 -0.17620309
-0.029814225 0.12275 0.0800602 -0.047345754 -0.021909466 -0.11335729 0.056260563 0.017058013
-0.11642202 -0.07587372 0.00074576307 -0.020519061 -0.08368338 -0.11475788 -0.024931286 0.034465794
0.036248054 -0.054618243 0.041017916 -0.0072164466 -0.092202015 -0.007292563 -0.08705504 -0.12306005
-0.08506051 -0.0813745 -0.13386236 0.033047948 -0.039496034 -0.08686909 0.119645156 0.12330664
0.05483644 -0.044482857 -0.096142106 0.09516539 0.1081485 0.12379718 -0.13055845 -0.17980576
-0.014005454 0.057100505 0.02737802 0.113905385 -0.06635525 0.0073262667 0.004755972 -0.16923383
00000000: e6e5 f63c 5129 36bd 2e8b 903d 2bbd 85bb
00000010: f65b 793c 1130 9a3c dd50 94bc 8b2e 553c
00000020: a320 033c b0f5 c5bd 4b51 173e c400 29be
00000030: e9cf bc3d 1ad8 383e be8a d03d 60cb 173d
00000040: 1deb fbbd 65ee bcbd edd3 093e 9732 873c
00000050: 1dac e4bc 108b 943c 769f 763c 226c 703d
00000060: 2515 fcbd af1e 273d 07ff a53d 8048 a7bd
00000070: d390 ac3d 0e2a afbd 2d61 273d 566a b23d
00000080: adc2 1fbd 562e adbc 92bd b43b 3d81 32bc
00000090: ab6f 0b3c c413 2fbe f4f4 9dbd 32e0 1ebd
000000a0: c768 afbd 2d61 02be b169 82be aa76 97bd
000000b0: 83a5 2bbe ac05 f03b 701b e8bd ad6d 51be
000000c0: 18be 1ebd 1935 dabb 4965 12be c023 4abe
000000d0: 2842 36be c087 02be 3bc1 da3d 77e0 81bb
000000e0: 306f 813e 1bf9 fcbd c920 a3bb 397f efbc
000000f0: 969e 2a3d 008c 40bd 0a47 5e3c 12e4 9cbc
00000100: e123 433e db5c 2a3e e8d1 8bbc dab7 a3bd
00000110: 0688 23bd f095 15bd 15c9 03be 18d3 ac3d
00000120: f05c 893d cac7 21bd cb8c 4b3e b5aa 07be
00000130: 35ec 393c 7754 af3d 7f20 58be 2192 a3bd
00000140: 83e6 14be 479a 63bd 06ee efbc d096 bf3d
00000150: f7fa edbd 8ffb 163d b86b 95bd 62fd 613c
00000160: 263f 17be 9ce9 d33d 7957 8e3b 5a11 25bb
00000170: df77 27bc d08f 633d ce08 2cbb fb68 283e
00000180: 7831 27be 43c3 b13d ab69 8e3d f48b b03d
00000190: c345 113e 8a09 6a3b 9e39 3c3d 3cc0 0c3e
000001a0: f34f 183e b294 bcbd 0bd2 60bd 3b53 bebd
000001b0: e18c 6cbd 40a4 4dbd 5cb3 fa3d ff98 78be
000001c0: 3bd5 d5bd 61f4 4b3e 9e8a 62be fc96 9dbd
000001d0: b4ea 2d3e 2f2f 76be 9c3a c63d 8a13 10bd
000001e0: 8df8 36be 54f9 a93d 632d cf3d cf38 22be
000001f0: 854f d1bd daf9 4c3e dff2 bebd ec82 043e
00000200: f954 a5bc 59d0 07be 6bc9 d33d e7e7 103e
00000210: 42e7 0abd 2135 b73d aee2 373e 7600 14be
00000220: 8864 d13d 8ded 0ebe a126 823d bbe7 14bd
00000230: c584 d93d c07a 813d 885c 42be 8e67 193e
00000240: cf2a 893c 2ee8 af3c 83bd e2bb 4d4c ca3c
00000250: 7479 4c3d 38a3 96bd 1ad0 bcbc d480 b5bd
00000260: 5ec7 3e3e 182f 90bc 1fd8 243e dd85 7c3c
00000270: ec90 a0bd ab1f 07bd b050 4abd 1ca7 833d
00000280: f98a 7fbe 806a db3d 6f05 53be 2dd1 41be
00000290: 1956 4fbe dcaf 0dbe 26f6 55bd 3959 9dbd
000002a0: 549b 2e3e a4a8 843e 3f7a 8b3e d15c 8abd
000002b0: 8e11 42be 2526 5fbe f039 33be 5457 8a3d
000002c0: e4a6 9f3c 75a1 423e 5dd0 903e 36f7 bf3d
000002d0: dcc3 79be cdff 64be a3d6 9c3c 050e a43d
000002e0: 57c8 0cbe 74f8 b93d e574 dc3d 5922 083e
000002f0: 23a2 8f3e 1956 a7bc 8cbd 453d d645 f43d
00000300: 7b72 0b3e 3f91 14bd 1873 e1bd ec8b e73c
00000310: ed77 4cbb f5dc 8f3d 77ad 2dbe 0790 1d3e
00000320: 0e96 cc3c a7f8 2b3e ccbe 13be 7480 06be
00000330: f59c e73c 2980 b1bd 9e11 0ebc 956e 34be
00000340: f63c f4bc 5a64 fb3d 9af6 a33d 9fed 41bd
00000350: 7b7b b3bc de27 e8bd 7a71 663d 3fbd 8b3c
00000360: ab6e eebd ae63 9bbd 507f 433a 9717 a8bc
00000370: 3162 abbd 2e06 ebbd b23c ccbc 012c 0d3d
00000380: d778 143d 61b7 5fbd 6702 283d f177 ecbb
00000390: 69d4 bcbd 74f6 eebb ea49 b2bd e806 fcbd
000003a0: 3434 aebd ada7 a6bd 3713 09be 495d 073d
000003b0: 98c6 21bd 6ce8 b1bd 8508 f53d 3188 fc3d
000003c0: 2d9c 603d a833 36bd 27e6 c4bd 12e6 c23d
000003d0: f67c dd3d 6089 fd3d 1db1 05be 001f 38be
000003e0: 2277 65bc 38e2 693d df47 e03c 3a47 e93d
000003f0: 43e5 87bd 2e11 f03b fcd7 9b3b a24b 2dbe

layer1.0.bias f4 [32]
-0.0002571695 0.0022428494 -0.034849346 0.0022037819 0.000987235 0.0033693456 0.012542434 -0.043325234
-0.025035905 0.014935681 -0.0071851173 0.040538847 0.0016032635 0.025968876 0.0031642113 -0.023799594
-0.0063923774 0.019083671 -0.0050502447 -0.103800945 -0.045058437 -0.014221154 -0.009144141 -0.06275385
0.036266744 0.043392602 -0.007477154 -0.0018159151 -0.010368694 0.020470824 -0.016908169 0.03314969
00000000: b5d4 86b9 c5fc 123b 30be 0ebd 536d 103b
00000010: 1c66 813a 3dd0 5c3b c87e 4d3c cd75 31bd
00000020: 1918 cdbc c9b4 743c 2271 ebbb 100c 263d
00000030: 9924 d23a aebc d43c a85e 4f3b 5ef7 c2bc
00000040: 2677 d1bb 5c55 9c3c 867c a5bb 9795 d4bd
00000050: 328f 38bd d8ff 68bc 4fd1 15bc 1785 80bd
00000060: 708c 143d 71bc 313d ea02 f5bb 0004 eeba
00000070: 74e1 29bc 6eb2 a73c 0083 8abc f8c7 073d

layer2.0.weight f4 [64, 32, 3, 3]
-0.019166304 0.040263828 0.030096652 0.05778327 -0.041444454 -0.010624563 0.08663847 -0.05192194
-0.1158036 0.07079298 0.0074716937 -0.10247384 0.05676292 -0.075462505 0.06980461 -0.0312008
-0.028947817 0.07070259 -0.06409343 0.10135127 0.02926896 -0.02527772 0.017111154 0.095442735
-0.034095693 -0.07920932 -0.035878226 -0.05933325 0.0053433813 0.0014312034 -0.056645215 0.03702381
0.0011862786 0.003875878 -0.032965347 -0.1341613 0.04613913 -0.019249273 -0.011661423 -0.016354352
-0.015292627 -0.018702948 -0.044983227 0.00010243588 -0.015305922 -0.035942044 -0.045904808 -8.283424e-05
0.08376751 0.046607673 0.13580714 0.035130657 0.03869201 0.052626517 -0.010349776 0.05290226
0.022968637 0.08963299 -0.105503134 -0.15867864 0.1130402 -0.01959819 -0.13277654 -0.045375034
-0.04980621 -0.0014378002 -0.069903165 -0.012795256 -0.021883111 -0.0655788 -0.030137341 -0.0156118125
0.02957484 -0.077827245 -0.083206706 0.023467075 0.04788976 -0.018376173 -0.12004644 -0.050505083
0.0006141397 0.00052548165 -0.05601768 0.00420111 0.00010539384 -0.043349773 -0.079076804 0.07472394
-0.024192706 -0.049666636 0.025843363 -0.062472995 0.069105126 -0.014124335 -0.07654813 -0.010863282
-0.0019768002 0.027897304 0.055736374 -0.013671296 -0.03366199 -0.10524761 -0.01821587 0.0399439
0.041460928 -0.10438419 -0.0020050185 0.03829573 0.07664023 0.007667314 -0.10433627 -0.0031119876
-0.0149433175 -0.03954734 0.014981687 -0.0031316432 0.02466221 0.063249856 0.054421615 0.024976501
-0.04262616 0.10382128 -0.047128275 0.06633942 0.064502515 -0.030667152 0.03908147 0.005959932
-0.04009912 0.08395246 0.055664234 0.054909177 -0.09149752 -0.0873336 -0.008101673 0.062022552
-0.054942943 0.11391179 -0.08520136 -0.071825325 0.053698458 -0.070539616 0.030147424 -0.025045967
0.016485857 -0.02200023 0.07504663 -0.07028607 0.0891682 -0.0065283156 0.10115656 0.014554842
-0.16321132 0.083972566 -0.024150938 0.08881606 0.0072178915 0.0044422527 -0.04501956 0.042773165
-0.011430207 -0.0881074 0.04377114 -0.084221534 -0.11259009 -0.052795935 0.046185073 0.008511907
0.028311044 -0.024454646 0.064706184 0.045732826 0.035861526 0.07575933 0.05085595 0.021334687
0.06293876 -0.010944103 0.09136102 -0.09466357 -0.12305602 -0.09685456 0.05721254 -0.11328866
-0.049139153 0.061522968 0.064367056 0.02986205 0.02430079 0.057110097 0.07320887 -0.04502478
0.07394156 0.021771427 -0.0050867465 -0.020690475 0.04576354 0.057516716 -0.060787495 -0.04212929
0.071835324 0.00073936785 -0.03038314 -0.10099694 -0.0018573104 0.06616285 -0.18192752 0.08495762
0.06131874 -0.10870413 -0.024121847 0.043086972 -0.034431547 -0.10351678 -0.044720776 0.1150945
-0.013207743 0.05651387 0.01377903 -0.0023427298 0.05079142 -0.008718879 -0.031749878 0.006739871
-0.021117182 -0.030953133 0.01573188 0.05720284 -0.0074756015 -0.017089361 -0.10594485 0.047885973
-0.10463634 -0.11710089 -0.052227773 -0.0019364716 0.047260337 -0.010030024 0.044665538 0.014206397
0.043008044 0.015542002 -0.06630268 0.027223175 0.012975265 -0.047667276 0.05568891 -0.03270381
0.07714241 -0.09273033 0.06810642 0.009936051 -0.017843397 -0.017088851 -0.11682632 -0.021517547
00000000: a702 9dbc afeb 243d 418d f63c 26ae 6c3d
00000010: a9c1 29bd a612 2ebc 836f b13d 1aac 54bd
00000020: 702a edbd e9fb 903d 1cd5 f43b cedd d1bd
00000030: 3c80 683d 168c 9abd b8f5 8e3d d298 ffbc
00000040: f923 edbc 85cc 903d 6b43 83bd 4191 cf3d
00000050: 75c5 ef3c 3913 cfbc b12c 8c3c 7b77 c33d
00000060: eda7 0bbd 7f38 a2bd 0cf5 12bd 6c07 73bd
00000070: 8817 af3b 3897 bb3a d004 68bd 47a6 173d
00000080: e87c 9b3a 7102 7e3b ac06 07bd 9461 09be
00000090: 62fc 3c3d a7b0 9dbc 8e0f 3fbc 90f9 85bc
000000a0: ed8d 7abc ed36 99bc 5540 38bd d8d2 d638
000000b0: b1c5 7abc f737 13bd ae06 3cbd 4bb7 adb8
000000c0: 4d8e ab3d b0e7 3e3d 0711 0b3e 2ae5 0f3d
000000d0: 837b 1e3d e78e 573d 1b92 29bc 0ab0 583d
000000e0: b928 bc3c 8091 b73d 0712 d8bd a77c 22be
000000f0: 9f81 e73d 628c a0bc 93f6 07be 2cdb 39bd
00000100: 9901 4cbd 9274 bcba 6429 8fbd 32a3 51bc
00000110: 3644 b3bc 2e4e 86bd 96e2 f6bc b0c8 7fbc
00000120: ef46 f23c e463 9fbd 4768 aabd 063e c03c
00000130: 0e28 443d a189 96bc e8da f5bd 6bde 4ebd
00000140: 38fe 203a 7ac0 093a cb72 65bd 77a9 893b
00000150: e306 dd38 888f 31bd 05f3 a1bd dd08 993d
00000160: c82f c6bc 3e6f 4bbd 76b5 d33c afe3 7fbd
00000170: fd86 8d3d c169 67bc 44c5 9cbd e8fb 31bc
00000180: 348d 01bb e388 e43c d34b 643d 92fd 5fbc
00000190: 28e1 09bd 0f8c d7bd 7339 95bc 379c 233d
000001a0: efd2 293d 61c7 d5bd a166 03bb fcdb 1c3d
000001b0: 8ef5 9c3d 173e fb3b 41ae d5bd 7df2 4bbb
000001c0: d1d4 74bc 64fc 21bd c075 753c 413c 4dbb
000001d0: 6708 ca3c 2489 813d 33e9 5e3d 859b cc3c
000001e0: c598 2ebd 40a0 d43d 9409 41bd f6dc 873d
000001f0: e519 843d ae39 fbbc e413 203d 894b c33b
00000200: fa3e 24bd 44ef ab3d 2e00 643d 72e8 603d
00000210: 0d63 bbbd f5db b2bd e1bc 04bc 5c0b 7e3d
00000220: da0b 61bd 964a e93d 0d7e aebd 2819 93bd
00000230: eaf2 5b3d 1377 90bd bbf7 f63c 332d cdbc
00000240: 590d 873c d439 b4bc 0cb2 993d 25f2 8fbd
00000250: d19d b63d 7beb d5bb 2c2b cf3d 6f77 6e3c
00000260: de20 27be cff9 ab3d 30d8 c5bc 32e5 b53d
00000270: 1084 ec3b 5190 913b 6e66 38bd ea32 2f3d
00000280: c345 3bbc a771 b4bd 5e49 333d 577c acbd
00000290: a295 e6bd 8d40 58bd 8f2c 3d3d 8775 0b3c
000002a0: 90ec e73c 1c55 c8bc ad84 843d 5852 3b3d
000002b0: 89e3 123d b527 9b3d 544e 503d 15c6 ae3c
000002c0: 09e6 803d e54e 33bc 7d1b bb3d f9de c1bd
000002d0: cb04 fcbd af5b c6bd b257 6a3d e303 e8bd
000002e0: 2346 49bd 82ff 7b3d e0d2 833d 42a1 f43c
000002f0: 7312 c73c 47ec 693d 88ee 953d e76b 38bd
00000300: ac6e 973d fe59 b23c b9ae a6bb 127f a9bc
00000310: 8d72 3b3d a696 6b3d 4ffc 78bd c38f 2cbd
00000320: 661e 933d 23d2 413a 10e6 f8bc 7cd7 cebd
00000330: ff70 f3ba 6380 873d 354b 3abe 43fe ad3d
00000340: 5c29 7b3d 45a0 debd 2e9b c5bc f77b 303d
00000350: 1808 0dbd 9b00 d4bd 222d 37bd aab6 eb3d
00000360: 4a65 58bc 167b 673d 71c1 613c 7c88 19bb
00000370: aa0a 503d a1d9 0ebc 290c 02bd 23da dc3b
00000380: f1fd acbc 6d91 fdbc 25e0 803c 864d 6a3d
00000390: e4f5 f4bb fdfe 8bbc 9df9 d8bd 1524 443d
000003a0: 944b d6bd 97d2 efbd caec 55bd 34d1 fdba
000003b0: 0e94 413d f854 24bc 36f3 363d f3c1 683c
000003c0: 3429 303d e2a3 7e3c b3c9 87bd 2303 df3c
000003d0: 3596 543c c33e 43bd 0e1a 643d 6ef4 05bd
000003e0: d7fc 9d3d 66e9 bdbd 617b 8b3d d2ca 223c
000003f0: 512c 92bc ebfd 8bbc a342 efbd 9145 b0bc

layer2.0.bias f4 [64]
0.019163048 -0.0020261102 0.0034325356 0.020257572 0.0052600023 0.0030501627 0.040525135 0.017940562
0.0012659684 0.017350731 0.022773711 0.013657706 0.005585441 0.012648744 0.031134216 -0.00026479625
0.0103854975 0.01397422 0.02362139 0.008815913 0.031049753 0.017983403 0.04286554 0.0022912712
0.015649782 0.01642699 0.0123397475 0.027294884 0.024241019 0.027056852 0.006063936 0.025094055
0.01944059 0.06845221 0.013912236 0.011577733 0.012004409 0.018881738 0.029605718 -0.0013200215
0.018658219 0.013093581 0.030156916 0.0118481815 0.0041859318 0.023656521 0.024431325 0.016027847
0.022758521 0.010825217 0.042265363 0.0045955624 0.0024069555 0.01881546 -0.013708788 0.025488922
-0.0076583233 0.0075247614 -0.011779754 0.05190453 0.015620885 0.0071966904 0.02905288 0.008347949
00000000: d3fb 9c3c 7dc8 04bb 64f4 603b 35f3 a53c
00000010: 195c ac3b 3de5 473b affd 253d 16f8 923c
00000020: daee a53a 1f23 8e3c ef8f ba3c 92c4 5f3c
00000030: 1306 b73b ad3c 4f3c 2f0d ff3c 5ad4 8ab9
00000040: ef27 2a3c 20f4 643c a581 c13c 9f70 103c
00000050: 0d5c fe3c ee51 933c c793 2f3d 2729 163b
00000060: f933 803c e591 863c a72c 4a3c 8599 df3c
00000070: 1a95 c63c 55a6 dd3c fbb3 c63b 0c92 cd3c
00000080: df41 9f3c ac30 8c3d 26f0 633c 88b0 3d3c
00000090: 24ae 443c e0ad 9a3c b187 f23c 9204 adba
000000a0: 1fd9 983c 7686 563c a30b f73c e01e 423c
000000b0: 242a 893b 52cb c13c 3424 c83c d54c 833c
000000c0: 1470 ba3c 405c 313c 721e 2d3d 5f96 963b
000000d0: 03be 1d3b e122 9a3c d39a 60bc 25ce d03c
000000e0: acf2 fabb 4692 f63b dfff 40bc d899 543d
000000f0: beee 7f3c 37d2 eb3b 4e00 ee3c d6c5 083c

layer3.0.weight f4 [64, 768]
0.06400027 -0.01757851 0.06859657 0.061643466 -0.056878977 -0.03956685 0.03692321 0.028235644
0.06251513 0.0004507584 0.11379654 -0.1056164 0.036248397 -0.0038530752 0.08155081 -0.068081565
-0.034236766 0.04067614 -0.054649334 0.01000196 -0.059248395 -0.0108535 0.023357475 -0.009550967
0.05737965 0.07091976 0.033152096 -0.007106895 -0.07405111 -0.04465434 0.022392841 -0.050085165
0.05985544 0.05914229 0.027879227 0.101928934 0.035618126 -0.052517164 0.10107341 -0.010801318
-0.044258934 -0.036705248 -0.073378645 0.044393994 0.06959983 -0.027260294 0.03021389 -0.08143215
-0.0047304365 0.03336288 -0.06829483 -0.0010689019 -0.025905594 -0.034339663 -0.09607031 -0.09220449
0.0626532 0.0748316 -0.034261975 0.08510011 0.018182017 -0.0012659451 0.10231466 0.08484084
-0.011844426 -0.038879942 0.03558187 -0.07906355 0.008729054 -0.025897225 -0.039030224 0.061279703
-0.0021373206 0.048187625 -0.055775017 -0.025820969 -0.051215094 -0.07337972 0.055743672 -0.06844783
0.0844383 0.029763175 -0.013361188 0.06618765 -0.061244387 -0.0783988 -0.019377174 -0.027636385
-0.06299601 -0.019726627 0.09120842 -0.0315419 0.053478487 0.025632724 0.042021427 0.05248303
-0.08809935 0.047999043 -0.055887923 -0.06611137 -0.0017750742 0.058532793 0.0013374432 0.020979514
0.03269643 0.10088243 -0.020028897 0.009348522 -0.0621762 -0.05853502 0.03967042 0.107709646
0.040621977 -0.050782643 0.039744124 0.022553913 0.04172291 0.0027615454 0.082215734 -0.03100473
-0.021225454 -0.08877075 0.021753004 0.008414851 -0.01334528 -0.018994126 -0.092773676 -0.011254723
-0.047098923 -0.0096082 -0.05480933 0.11007161 -0.08158105 -0.06582446 0.046906475 0.089490935
0.06748197 -0.074586995 0.019158931 -0.07391567 -0.001675991 0.10044875 0.040302306 -0.040147755
-0.008221628 0.029564872 -0.02281589 -0.058361936 -0.086878456 -0.05495902 -0.0052802204 0.020293199
-0.054791834 0.055257384 0.044410747 0.005568916 0.017104795 0.10828017 -0.030770492 -0.09652605
0.010400778 -0.1570034 -0.06671577 -0.04995411 0.064651825 0.05416098 0.028276747 0.07057524
-0.00015168531 0.068131804 0.017763227 0.016953727 -0.024005277 -0.05898171 -0.05594262 -0.111930065
0.08465234 -0.067388386 -0.04923912 -0.088415995 0.001794774 0.05546493 0.007822983 0.06433503
-0.003015401 -0.035733607 0.032742165 0.010004348 -0.068765454 -0.056060247 -0.044602685 -0.031268872
0.014308239 0.039191842 0.033140738 -0.03970364 -0.007519262 0.043634564 -0.085441954 -0.06582248
0.06622575 0.10434272 0.050379835 0.14091896 0.0014756471 -0.050339784 -0.08416533 0.030980447
-0.008179748 0.03284917 -0.0308839 -0.04241843 0.015869785 -0.08977213 0.0055509345 0.04331779
0.09054961 0.07821277 -0.018309996 0.10989603 0.07338452 0.032781716 -0.08929599 -0.049512364
0.05798067 -0.016187558 -0.04064346 -0.019460665 0.066095755 -0.058756117 0.07520923 0.15736376
-0.0041888254 -0.068367414 0.046869703 0.03776164 -0.026223823 0.078776896 -0.02862109 -0.038689017
-0.087296054 0.06543064 -0.08740779 0.0036816646 -0.012765475 0.028734455 -0.06876353 -0.11490973
0.049351458 0.08621139 0.13880901 0.17073154 -0.044052184 0.0043253647 0.009881518 0.021074006
00000000: 9312 833d cf00 90bc 5c7c 8c3d dc7d 7c3d
00000010: eef9 68bd d910 22bd cb3c 173d 704e e73c
00000020: ef07 803d c553 ec39 290e e93d 694d d8bd
00000030: 3379 143d e083 7cbb 1c04 a73d 596e 8bbd
00000040: da3b 0cbd 069c 263d fbd7 5fbd 43df 233c
00000050: 72ae 72bd e1d2 31bc 2d58 bf3c a97b 1cbc
00000060: ed06 6b3d 613e 913d 7eca 073d f5e0 e8bb
00000070: 1ca8 97bd 78e7 36bd 3171 b73c 1a26 4dbd
00000080: fa2a 753d 303f 723d fa62 e43c 1ec0 d03d
00000090: 50e4 113d 3d1c 57bd 93ff ce3d 03f8 30bc
000000a0: db48 35bd 3e58 16bd 8b47 96bd 7ad6 353d
000000b0: 5b8a 8e3d fb50 dfbc 1f83 f73c e6c5 a6bd
000000c0: c701 9bbb 84a7 083d 29de 8bbd 651a 8cba
000000d0: f837 d4bc bfa7 0cbd 83c0 c4bd b5d5 bcbd
000000e0: 5250 803d 4f41 993d 4956 0cbd f748 ae3d
000000f0: 74f2 943c 12ee a5ba 598a d13d 09c1 ad3d
00000100: 200f 42bc 9340 1fbd 4bbe 113d 12ec a1bd
00000110: 4e04 0f3c 6b26 d4bc 28de 1fbd 6d00 7b3d
00000120: 4a12 0cbb 6360 453d 5874 64bd 7f86 d3bc
00000130: ebc6 51bd 1b48 96bd 7a53 643d 602e 8cbd
00000140: fded ac3d e7d1 f33c e2e8 5abc 648d 873d
00000150: 65db 7abd 8d8f a0bd e1bc 9ebc b365 e2bc
00000160: 0d04 81bd bc99 a1bc 7bcb ba3d 1432 01bd
00000170: 420c 5b3d b8fb d13c a91e 2c3d 72f8 563d
00000180: 6f6d b4bd a59a 443d bcea 64bd 6665 87bd
00000190: 9ba9 e8ba 15c0 6f3d 264d af3a 3bdd ab3c
000001a0: b1ec 053d 739b ce3d a413 a4bc 8b2a 193c
000001b0: 79ac 7ebd 6bc2 6fbd 737d 223d e096 dc3d
000001c0: 3b63 263d 7601 50bd bcca 223d fcc2 b83c
000001d0: a4e5 2a3d 0bfb 343b b960 a83d a2fd fdbc
000001e0: 01e1 adbc 70cd b5bd 5b33 b23c 71de 093c
000001f0: 29a6 5abc 9299 9bbc 2000 bebd bb65 38bc
00000200: cdea 40bd b66b 1dbc bf7f 60bd 396d e13d
00000210: f713 a7bd f9ce 86bd 0121 403d 0647 b73d
00000220: fd33 8a3d 11c1 98bd 31f3 9c3c 1961 97bd
00000230: edac dbba 13b8 cd3d 0814 253d f971 24bd
00000240: 02b4 06bc 0832 f23c 64e8 babc ed0c 6fbd
00000250: 55ed b1bd b61c 61bd b305 adbb ec3d a63c
00000260: 676d 60bd 9155 623d 0be8 353d 747b b63b
00000270: 5b1f 8c3c fec1 dd3d 6612 fcbc 73af c5bd
00000280: 0668 2a3c 80c5 20be 47a2 88bd ae9c 4cbd
00000290: 2d68 843d e7d7 5d3d a3a4 e73c c089 903d
000002a0: b70d 1fb9 b088 8b3d 3084 913c 8be2 8a3c
000002b0: b7a6 c4bc ce96 71bd 1724 65bd 973b e5bd
000002c0: 355e ad3d ec02 8abd f6ae 49bd 7213 b5bd
000002d0: 9f3e eb3a 322f 633d f82b 003c 16c2 833d
000002e0: 099e 45bb 675d 12bd a61c 063d 47e9 233c
000002f0: e7d4 8cbd 6e9f 65bd 4eb1 36bd ca13 00bd
00000300: 1b6d 6a3c a087 203d 95be 073d 49a0 22bd
00000310: 2464 f6bb 28ba 323d 31fc aebd f0cd 86bd
00000320: 5ea1 873d a3b1 d53d 165b 4e3d 0f4d 103e
00000330: 806a c13a 1731 4ebd df5e acbd b5ca fd3c
00000340: 5a04 06bc da8c 063d 3c00 fdbc f3be 2dbd
00000350: 5a01 823c 73da b7bd 9de4 b53b ff6d 313d
00000360: 1372 b93d 042e a03d d8fe 95bc 2b11 e13d
00000370: a04a 963d 1f46 063d d1e0 b6bd 7acd 4abd
00000380: 247d 6d3d c59b 84bc c279 26bd f96b 9fbc
00000390: 365d 873d 41aa 70bd 4c07 9a3d f723 213e
000003a0: 6a42 89bb 3704 8cbd 72fa 3f3d f3ab 1a3d
000003b0: 58d3 d6bc c855 a13d c776 eabc 6078 1ebd
000003c0: 46c8 b2bd 8000 863d db02 b3bd 1548 713b
000003d0: 4826 51bc 8564 eb3c e5d3 8cbd cb55 ebbd
000003e0: c124 4a3d 998f b03d f323 0e3e 40d4 2e3e
000003f0: 1070 34bd cabb 8d3b 17e6 213c 65a3 ac3c

layer3.0.bias f4 [64]
0.009261986 0.012460059 0.021180384 0.026588157 0.0063126045 0.0006420467 0.014375251 0.021228839
0.01066739 0.04780266 0.0015609724 0.02894176 -0.026746241 -0.0072890585 0.02857846 0.041794937
0.008860321 0.0047502643 0.0053811264 -0.0035037396 0.00069765036 0.007753288 -0.0036866362 -0.008734502
0.0051454217 0.008292764 0.0041778805 0.015654532 0.019774256 0.00548502 0.029627688 -0.012571641
0.017988758 0.01327167 0.013198468 0.037830107 0.06115301 -0.0025155905 0.012938032 -0.00590107
0.006998437 -0.005180817 0.004108872 0.0027700232 0.050302822 0.01148272 0.007536343 -0.01022273
0.029580932 0.019274212 0.0069053276 0.036452968 -0.013387361 0.007741132 -0.0027986662 0.02974475
-0.0077772825 0.00248493 0.0023598357 0.008570446 -0.0034656636 0.021354795 -0.0050232345 0.009964022
00000000: 96bf 173c 4625 4c3c 7c82 ad3c 68cf d93c
00000010: f7d9 ce3b 064f 283a 2c86 6b3c 1ae8 ad3c
00000020: 47c6 2e3c b9cc 433d 8b99 cc3a 4517 ed3c
00000030: ef1a dbbc 0ed9 eebb 601d ea3c 2b31 2b3d
00000040: e12a 113c 1ba8 9b3b 2954 b03b ff9e 65bb
00000050: 86e2 363a 4b0f fe3b 7e9b 71bb 281b 0fbc
00000060: ed9a a83b 60de 073c 9ae6 883b ef3d 803c
00000070: 9ffd a13c afbb b33b c4b5 f23c 49f9 4dbc
00000080: 295d 933c 6b71 593c 633e 583c bef3 1a3d
00000090: 947b 7a3d 9bdc 24bb 0afa 533c c35d c1bb
000000a0: 2553 e53b d8c3 a9bb b7a3 863b 4789 353b
000000b0: 550a 4e3d 0522 3c3c 6df3 f63b 3d7d 27bc
000000c0: b653 f23c f4e4 9d3c 1646 e23b b54f 153d
000000d0: a956 5bbc 52a9 fd3b d469 37bb 43ab f33c
000000e0: 93d8 febb 35da 223b 79a7 1a3b 0e6b 0c3c
000000f0: 3020 63bb 40f0 ae3c f299 a4bb 2340 233c

layer4.weight_ih_l0 f4 [96, 64]
0.23631014 0.1567922 -0.16315977 0.08395122 0.081157856 -0.07858562 0.2301252 0.036739618
-0.13783115 -0.028867682 -0.03232752 -0.051609196 0.15641165 0.101814695 -0.107757516 -0.21493293
-0.16518195 -0.055952407 -0.13850085 0.23411632 -0.048822973 -0.030536566 -0.072908126 0.10399966
-0.024875062 0.10854892 0.06493138 -0.06027023 0.10310305 -0.07369933 0.10882503 -0.019217376
-0.24300276 0.032712303 -0.13828328 -0.23381186 -0.09722115 -0.10604803 0.07389255 0.1978715
0.017105356 0.13897152 0.07869366 0.029342648 -0.06670224 0.15154043 0.06137072 0.15862791
0.11273672 0.010871459 -0.06856392 0.053515907 0.22298265 -0.05656258 -0.009076706 -0.022104323
0.12637405 -0.10593031 0.1266605 -0.21761234 0.008990937 0.008850231 0.0071987463 0.163438
0.16837516 -0.08749314 -0.033930097 0.19050997 -0.1721119 -0.010232471 0.041215762 -0.117590435
-0.020200431 -0.09836176 0.16810766 -0.039429665 -0.10426425 0.04518571 0.03633745 0.013474001
-0.030858627 -0.099869676 0.18907984 0.1999188 0.05002835 0.33906564 -0.010133258 0.13315833
0.16101721 -0.11112428 -0.11900873 0.08673451 0.071419425 -0.1636682 -0.10511717 0.22329938
0.1445535 -0.037295606 0.031077784 -0.13647623 0.16106224 0.10722218 0.11894819 0.05697631
0.14842476 0.062153496 -0.14836676 -0.14924446 0.18060476 -0.011367033 -0.09543923 -0.12481648
-0.10237985 -0.07005512 -0.10839257 0.15425956 0.072459176 0.069849975 -0.095470734 -0.058944426
0.14227282 0.14986458 0.2454588 0.09609612 -0.09639553 0.112691894 -0.14450417 -0.12542723
-0.0028480224 0.072355166 -0.07516154 -0.06570373 -0.09434127 0.08902206 -0.12858729 -0.03235514
-0.078359485 -0.036551204 -0.051835876 -0.05309123 0.072859064 -0.13297445 -0.3141438 0.060824517
-0.15767825 0.15408051 -0.012754999 0.14978494 0.022685438 0.0423453 -0.05013536 -0.027207403
-0.1575893 0.058622994 -0.1832396 0.024225503 -0.21782133 0.022708159 -0.12609005 0.060331788
0.11963667 0.008412369 -0.067684226 -0.09012328 0.1506113 0.1357238 -0.25333887 0.17421252
0.0132774515 0.16671975 0.044018034 -0.058214493 0.049848776 -0.09444446 0.21119513 0.0016855833
-0.22610587 -0.050730444 0.07845975 -0.0043454343 0.0059631346 -0.07084403 -0.14250322 -0.1763614
-0.13637279 -0.105378516 -0.034296464 -0.03560089 -0.029585648 0.07665301 -0.14214212 -0.05218823
0.17547111 -0.035042502 -0.08227726 -0.026654487 0.10522289 0.33254915 -0.1024328 0.13529308
0.11205142 -0.08373802 0.287059 0.06652412 0.072591536 0.16851841 0.15942483 0.071855724
0.14304267 0.1547098 0.0054222546 0.15787362 -0.08754049 0.07537656 0.3300609 0.23791076
0.11440859 -0.07298188 -0.015981773 0.16065954 -0.13357495 -0.0038140763 -0.07461396 -0.04487807
0.12760462 0.28155693 0.021846222 0.123543486 0.34138072 0.2339668 -0.008558819 0.11655483
0.07454154 0.016524384 0.08236831 0.027606867 -0.08695708 -0.10014413 -0.10215625 -0.12460223
-0.10092318 0.13632728 0.07501633 -0.08231245 0.112172104 -0.027235145 -0.10359397 0.0779658
-0.008293988 -0.0030196407 -0.024820542 0.003678378 0.19053648 -0.1111924 0.040977247 0.06575274
00000000: 49fb 713e 228e 203e 5b13 27be 9eee ab3d
00000010: 1736 a63d 7ff1 a0bd f1a5 6b3e 487c 163d
00000020: 9c23 0dbe eb7b ecbc dd69 04bd 2a64 53bd
00000030: 602a 203e 3984 d03d f9af dcbd 6117 5cbe
00000040: 7525 29be 5a2e 65bd 2bd3 0dbe 30bc 6f3e
00000050: 99fa 47bd d227 fabc db50 95bd c6fd d43d
00000060: c9c6 cbbc e54e de3d befa 843d ebdd 76bd
00000070: b127 d33d adef 96bd a8df de3d c26d 9dbc
00000080: b7d5 78be 56fd 053d 229a 0dbe 606c 6fbe
00000090: e21b c7bd b62f d9bd fa54 973d d49e 4a3e
000000a0: 8820 8c3c 8d4e 0e3e 242a a13d fe5f f03c
000000b0: 2f9b 88bd 6a2d 1b3e dd5f 7b3d 5b6f 223e
000000c0: 82e2 e63d 341e 323c 3e6b 8cbd 7f33 5b3d
000000d0: 9055 643e 2aae 67bd 77b6 14bc 2014 b5bc
000000e0: 3368 013e fef1 d8bd 4ab3 013e c5d5 5ebe
000000f0: b94e 133c 8f00 113c 76e3 eb3b 4b5c 273e
00000100: 8a6a 2c3e 9a2f b3bd 49fa 0abd 0c15 433e
00000110: 1a3e 30be 18a6 27bc dcd1 283d 41d3 f0bd
00000120: 607b a5bc e471 c9bd 6a24 2c3e 0081 21bd
00000130: 7f88 d5bd a714 393d 94d6 143d 0ec2 5c3c
00000140: 3bcb fcbc 7988 ccbd 259e 413e 84b7 4c3e
00000150: 87ea 4c3d 039a ad3e f705 26bc a85a 083e
00000160: b2e1 243e 2095 e3bd d9ba f3bd dda1 b13d
00000170: 5944 923d a398 27be ac47 d7bd 98a8 643e
00000180: d505 143e 47c3 18bd d696 fe3c 6dc0 0bbe
00000190: 80ed 243e 4d97 db3d 1c9b f33d fe5f 693d
000001a0: a9fc 173e aa94 7e3d 75ed 17be 8ad3 18be
000001b0: 74f0 383e cb3c 3abc a575 c3bd c89f ffbd
000001c0: 87ac d1bd 0f79 8fbd ecfc ddbd 38f6 1d3e
000001d0: 7a65 943d 810d 8f3d 2986 c3bd b66f 71bd
000001e0: f7af 113e 1a76 193e 8d59 7b3e 0bce c43d
000001f0: 056b c5bd 02cb e63d e7f8 13be ff6f 00be
00000200: e3a5 3abb f22e 943d 4bee 99bd ad8f 86bd
00000210: ff35 c1bd 3351 b63d 63ac 03be d386 04bd
00000220: f07a a0bd b7b6 15bd db51 54bd 3176 59bd
00000230: 2237 953d 742a 08be 75d7 a0be 2123 793d
00000240: 6876 21be 48c7 1d3e 58fa 50bc 3961 193e
00000250: d0d6 b93c 4472 2d3d bc5a 4dbd 0fe2 debc
00000260: 175f 21be aa1e 703d 29a3 3bbe 9074 c63c
00000270: 8e0c 5fbe 7606 ba3c c01d 01be 771e 773d
00000280: 1204 f53d 08d4 093c 079e 8abd 8e92 b8bd
00000290: d939 1a3e 2efb 0a3e a2b5 81be c464 323e
000002a0: ab89 593c 95b8 2a3e 414c 343d 5272 6ebd
000002b0: 3b2e 4c3d 196c c1bd 8943 583e caee dc3a
000002c0: 4c88 67be baca 4fbd 81af a03d 2564 8ebb
000002d0: 6666 c33b ad16 91bd 5dec 11be 1598 34be
000002e0: 4fa5 0bbe b1d0 d7bd 737a 0cbd 3dd2 11bd
000002f0: 9a5d f2bc 41fc 9c3d b48d 11be 53c3 55bd
00000300: b3ae 333e ba88 0fbd fb80 a8bd 835a dabc
00000310: 197f d73d e243 aa3e 4ac8 d1bd 458a 0a3e
00000320: 377b e53d d77e abbd 66f9 923e cc3d 883d
00000330: dfaa 943d 1790 2c3e 4340 233e 1829 933d
00000340: c779 123e 3f6c 1e3e 2bad b13b 9fa9 213e
00000350: 6e48 b3bd 075f 9a3d befd a83e e19e 733e
00000360: 0d4f ea3d 8677 95bd 35ec 82bc ef83 243e
00000370: dfc7 08be 95f5 79bb 34cf 98bd 11d2 37bd
00000380: c9aa 023e 3b28 903e d9f6 b23c 5e04 fd3d
00000390: 74c9 ae3e fe94 6f3e 4a3a 0cbc 4cb4 ee3d
000003a0: 3ca9 983d 255e 873c b7b0 a83d cc27 e23c
000003b0: 8e16 b2bd 5e18 cdbd 4c37 d1bd 742f ffbd
000003c0: d0b0 cebd 6199 0b3e 29a2 993d 6e93 a8bd
000003d0: 7dba e53d 3d1c dfbc 1329 d4bd 89ac 9f3d
000003e0: 82e3 07bc 2ae5 45bb 7354 cbbc f110 713b
000003f0: ff1b 433e d7b8 e3bd c2d7 273d 5fa9 863d

layer4.weight_hh_l0 f4 [96, 32]
0.2563954 -0.010454115 0.10746989 -0.085208856 0.09548404 0.17099112 -0.035064153 -0.0377607
0.1813101 0.037649732 -0.04815967 0.05597056 0.055749394 -0.032842718 0.018913025 -0.013513641
0.00084075093 0.15098786 0.1911243 -0.0046733716 0.08628502 -0.018922688 0.011402205 0.04151256
-0.07024927 0.05603874 -0.23594882 0.19431038 -0.035932958 -0.1709488 -0.24585313 0.057059657
0.1945424 0.0128862765 -0.025086999 -0.23652644 0.174607 0.068011254 -0.14603406 -0.10096488
0.06678493 0.18427497 -0.3577499 0.07762657 0.016434304 -0.21009202 0.033506144 -0.08533548
0.022594638 -0.24888964 -0.10738497 -0.036876768 -0.11420358 0.033576712 0.30401984 0.30126807
0.2693276 -0.09294444 -0.2048604 0.104492776 0.0019426569 0.036710974 0.015292826 0.029666917
0.055422407 -0.013955847 -0.016230721 0.06489639 -0.07722947 -0.019504586 -0.16002014 -0.30722782
0.009907944 -0.11453311 -0.28645027 0.2857026 0.29147428 -0.11375336 0.06199879 0.15000102
-0.2168819 -0.091592975 0.116837 0.03344382 -0.0634224 -0.069093965 0.28484413 0.22923692
0.28477538 -0.21732654 -0.21197064 0.113218814 0.22710434 0.15297069 -0.058073197 0.16034092
0.040249486 -0.21105255 0.015661329 0.041512344 -0.08426577 0.10721953 -0.06277442 -0.27336797
0.095347635 -0.09066415 0.08100063 -0.19055967 0.14004675 0.07163722 0.12072436 -0.03297619
-0.078791566 0.09720825 0.012204542 0.04976479 -0.2324946 -0.08103834 0.12978989 0.009875003
0.005096965 -0.07097173 0.056681138 0.07229083 -0.13119546 0.042604268 -0.08989427 -0.09836187
-0.041080303 -0.033418104 0.020527204 0.09893369 -0.03137596 0.066389985 0.018516716 0.17809442
0.078600675 -0.035718277 -0.1841878 -0.06848242 0.035121486 0.10605256 -0.10915345 0.0114461845
-0.18475226 -0.01018539 -0.07355958 0.1510745 0.10283875 0.008798568 -0.038560722 0.16266295
0.074101076 0.005252255 -0.0669147 0.20040338 0.009789345 -0.17996073 -0.21379612 -0.053907424
0.008878835 -0.19397138 0.05303053 0.13929942 -0.016077543 -0.08148913 0.15270151 0.10337829
-0.26797122 -0.18890926 -0.08702239 0.16449796 -0.091525845 -0.051838532 -0.07624955 -0.19734238
-0.07607758 0.13076709 -0.05678207 -0.042354736 -0.09236185 0.04759998 0.20743115 -0.16209528
-0.0015319331 0.121215954 -0.123986356 0.14416055 -0.14807713 -0.028858233 -0.009623604 0.040215533
0.18025841 -0.1239912 0.11145566 0.0009391658 0.10491639 0.14396037 -0.13368073 -0.09163719
0.099338435 0.07212224 -0.076323174 -0.007974651 -0.07356717 -0.0444005 -0.05510807 0.05423589
-0.14904869 0.04929306 0.1789896 0.13391747 0.040459506 0.0898389 0.03873381 -0.029038765
0.03695211 -0.10657165 0.060027525 -0.25169596 0.14465967 0.03991315 0.011998893 -0.0587
-0.008490224 -0.106666625 -0.078283146 -0.15274486 -0.07404411 0.09355326 -0.06634116 0.044217728
-0.079242155 0.1807119 -0.012695752 0.15962355 0.27201244 -0.025343917 0.085222505 0.037544843
0.0049790354 0.12758023 0.031256963 0.017623331 -0.0065602176 -0.061569594 -0.055626474 0.027386378
-0.08825674 0.12897474 0.05258679 -0.05093766 0.026704155 0.06290503 0.10529735 0.120394625
00000000: 4246 833e bd47 2bbc 2c19 dc3d fb81 aebd
00000010: 238d c33d 4c18 2f3e 6e9f 0fbd f7aa 1abd
00000020: 5ba9 393e 9b36 1a3d 1343 45bd 6341 653d
00000030: 7a59 643d 1686 06bd 7def 9a3c 5268 5dbc
00000040: d765 5c3a 909c 1a3e 17b6 433e 1523 99bb
00000050: 33b6 b03d c103 9bbc 50d0 3a3c 1309 2a3d
00000060: d9de 8fbd e188 653d 919c 71be 4df9 463e
00000070: 702e 13bd 340d 2fbe ecc0 7bbe 63b7 693d
00000080: 1f36 473e f620 533c 4083 cdbc fd33 72be
00000090: 2dcc 323e 7c49 8b3d f489 15be adc6 cebd
000000a0: 8ac6 883d 94b2 3c3e ff2a b7be aefa 9e3d
000000b0: 3ca1 863c 5d22 57be bd3d 093d 5ec4 aebd
000000c0: 6418 b93c eddc 7ebe a7ec dbbd 180c 17bd
000000d0: 91e3 e9bd bc87 093d 7da8 9b3e cf3f 9a3e
000000e0: 4fe5 893e a859 bebd edc6 51be 4f00 d63d
000000f0: c0a0 fe3a 3f5e 163d c38e 7a3c 0908 f33c
00000100: 9b02 633d 11a7 64bc 4af6 84bc 66e8 843d
00000110: 7c2a 9ebd 15c8 9fbc 52dc 23be f74c 9dbe
00000120: ee54 223c 5690 eabd 9ca9 92be 9c47 923e
00000130: 1e3c 953e 86f7 e8bd 71f2 7d3d de99 193e
00000140: 4a16 5ebe 1995 bbbd 3d48 ef3d 63fc 083d
00000150: 9ae3 81bd 2381 8dbd 17d7 913e 15bd 6a3e
00000160: 14ce 913e d98a 5ebe d50e 59be 44df e73d
00000170: 0a8e 683e 59a4 1c3e 29de 6dbd 6930 243e
00000180: a5dc 243d 291e 58be 304c 803c d908 2a3d
00000190: 8893 acbd ea95 db3d e08f 80bd e3f6 8bbe
000001a0: 9f45 c33d 20ae b9bd a9e3 a53d 1322 43be
000001b0: 6a68 0f3e 89b6 923d 553e f73d 0b12 07bd
000001c0: 795d a1bd 1e15 c73d 8ff5 473c 2ad6 4b3d
000001d0: 1013 6ebe 6ef7 a5bd a4e7 043e c4ca 213c
000001e0: 7104 a73b a059 91bd 7b2a 683d 370d 943d
000001f0: 1a58 06be d081 2e3d 7d1a b8bd f371 c9bd
00000200: d243 28bd 6ce1 08bd ab28 a83c bf9d ca3d
00000210: 1484 00bd 79f7 873d 5eb0 973c 625e 363e
00000220: 64f9 a03d 544d 12bd ba9b 3cbe 8340 8cbd
00000230: 8cdb 0f3d 1632 d93d d88b dfbd c788 3b3c
00000240: b22f 3dbe 9fe0 26bc 68a6 96bd 46b3 1a3e
00000250: 1f9d d23d de27 103c d9f1 1dbd 1e91 263e
00000260: 4ec2 973d 1c1b ac3b 930a 89bd 8b36 4d3e
00000270: 7d63 203c a047 38be 5fed 5abe 08ce 5cbd
00000280: 8878 113c 6fa0 46be 8b36 593d 82a4 0e3e
00000290: 0db5 83bc c6e3 a6bd c95d 1c3e ffb7 d33d
000002a0: 8633 89be 6e71 41be cb38 b2bd 2772 283e
000002b0: e771 bbbd a454 54bd b928 9cbd 1f14 4abe
000002c0: 90ce 9bbd cfe7 053e 5194 68bd 297c 2dbd
000002d0: 3628 bdbd 32f8 423d d568 543e 4efc 25be
000002e0: 25cb c8ba 1240 f83d 8fec fdbd d39e 133e
000002f0: 88a1 17be 1a68 ecbc 52ac 1dbc 0bb9 243d
00000300: a995 383e 19ef fdbd dd42 e43d 5a32 763a
00000310: 67de d63d 596a 133e 9ae3 08be 47ac bbbd
00000320: f371 cb3d d3b4 933d 534f 9cbd 1ca8 02bc
00000330: 62aa 96bd 4cdd 35bd 00b9 61bd 7426 5e3d
00000340: 38a0 18be 85e7 493d 0d49 373e a921 093e
00000350: deb8 253d 75fd b73d 58a7 1e3d b4e2 edbc
00000360: 185b 173d 3d42 dabd 6cdf 753d 4bde 80be
00000370: aa21 143e f97b 233d 0197 443c 696f 70bd
00000380: 951a 0bbc 0874 dabd ea52 a0bd 2669 1cbe
00000390: 70a4 97bd da98 bf3d e0dd 87bd a61d 353d
000003a0: b649 a2bd 8a0c 393e d801 50bc 5b74 233e
000003b0: 3745 8b3e 0c9e cfbc 2389 ae3d 9fc8 193d
000003c0: 2d27 a33b 64a4 023e 4d07 003d ce5e 903c
000003d0: 18f7 d6bb 6630 7cbd 96d8 63bd 6659 e03c
000003e0: f3bf b4bd f411 043e 3f65 573d 02a4 50bd
000003f0: acc2 da3c 5ad4 803d 23a6 d73d 7591 f63d

layer4.bias_ih_l0 f4 [96]
0.09473907 0.027510906 0.015231125 -0.10868944 0.07632822 0.18026899 0.19471821 -0.15226828
-0.014619552 0.08744549 0.016361535 0.017905824 -0.106692165 0.00858905 0.098825574 0.047638915
0.09054758 -0.09444086 0.087034345 0.33060697 0.029803608 0.114902884 0.18070985 0.09783296
-0.0768759 0.0014585707 -0.07815105 0.045588076 -0.0009649261 0.21640617 0.12078687 -0.056816593
0.08624177 -0.20858988 -0.03929254 -0.15525042 -0.17009838 -0.13749911 -0.12460932 -0.20624831
-0.1554993 -0.0017126093 0.10122564 -0.07269244 -0.035360288 -0.094277866 0.11292254 -0.09288634
0.1816568 0.03741726 -0.022516808 -0.06785253 -0.011544627 0.023664437 -0.2567275 0.091195084
-0.06785667 0.088770494 0.104502775 0.099485785 0.094877765 -0.124328315 0.035749894 -0.075355835
0.14182799 0.11846724 -0.14074808 -0.12082307 0.17598219 0.15230717 0.13471831 0.14140595
-0.08953065 0.10975718 0.032417532 -0.15717901 0.062289063 0.16378887 -0.037510827 -0.051626533
0.09079271 -0.011576417 0.15550502 0.09986397 -0.063932955 0.022845512 0.040677167 -0.03521255
0.04773598 -0.12537296 -0.071454726 0.08434903 -0.0033697227 0.137531 0.044268664 0.16035646
00000000: 8f06 c23d 8d5e e13c f88b 793c 9298 debd
00000010: f851 9c3d 6f98 383e 3664 473e 37ec 1bbe
00000020: d886 6fbc 9f16 b33d a008 863c 3caf 923c
00000030: 6c81 dabd 16b9 0c3c 1065 ca3d 0621 433d
00000040: 0271 b93d 366a c1bd 103f b23d 5145 a93e
00000050: b226 f43c 3452 eb3d 010c 393e a65c c83d
00000060: 1d71 9dbd 832d bf3a a80d a0bd 90ba 3a3d
00000070: 18f3 7cba 9499 5d3e 1b5f f73d 84b8 68bd
00000080: 869f b03d 9698 55be 37f1 20bd f7f9 1ebe
00000090: 452e 2ebe 91cc 0cbe 2c33 ffbd c232 53be
000000a0: 353b 1fbe a279 e0ba 634f cf3d c6df 94bd
000000b0: f3d5 10bd c114 c1bd ef43 e73d 323b bebd
000000c0: 3d04 3a3e d742 193d 2b75 b8bc 44f6 8abd
000000d0: ad25 3dbc ecdb c13c c971 83be 7dc4 ba3d
000000e0: 70f8 8abd 4ecd b53d 8d05 d63d 34bf cb3d
000000f0: 464f c23d d89f febd 7b6e 123d 2954 9abd
00000100: 5b3b 113e f49e f23d 4420 10be 1672 f7bd
00000110: ad34 343e 69f6 1b3e 99f3 093e b9cc 103e
00000120: d85b b7bd 5fc8 e03d 3fc8 043d 89f3 20be
00000130: d122 7f3d 45b8 273e f4a4 19bd 5876 53bd
00000140: 87f1 b93d 03ab 3dbc b53c 1f3e 7b85 cc3d
00000150: 48ef 82bd 8326 bb3c 1a9d 263d 093b 10bd
00000160: ce86 433d c561 00be db56 92bd 2fbf ac3d
00000170: 91d6 5cbb edd4 0c3e 0f53 353d 7c34 243e

layer4.bias_hh_l0 f4 [96]
0.07946589 0.14258675 0.17126851 0.21361014 0.08644364 0.12531343 0.18839678 0.048662048
-0.062005952 0.018521657 0.13307464 0.056465615 -0.01079088 -0.012071925 -0.08622595 -0.012067177
-0.07049611 0.03541196 -0.022860017 0.106134504 -0.039901815 0.080854714 0.20455514 0.17768481
-0.024980713 -0.048802156 -0.04821922 -0.15216091 0.07969754 0.13097215 0.03782651 0.10717827
0.018736146 -0.14213292 -0.03652635 -0.22041708 -0.1993669 0.14496848 -0.029991144 -0.11875398
0.16540477 0.09251347 -0.18505421 0.12380952 0.09007152 -0.07740974 0.057014592 -0.090174764
0.02405224 -0.10041784 0.028687106 -0.15187152 -0.054336403 0.09844664 -0.19329563 -0.15543193
0.009520244 0.008179364 0.14229946 -0.027816776 -0.028085189 0.07568707 0.08086262 -0.028640183
-0.08121949 0.1357178 -0.027843624 -0.046491083 0.16580488 0.0014147722 -0.08926501 -0.09261411
-0.065726556 0.16925812 -0.19419587 0.043505676 -0.012073779 0.006195866 -0.046607234 -0.020283645
0.05389135 0.021262512 -0.10023031 -0.14056788 -0.010101564 -0.056333866 -0.07209752 0.07940416
0.19366258 0.0071835234 0.14866592 -0.12077829 -0.054581873 0.09903468 0.060121644 0.071400896
00000000: 03bf a23d 4302 123e 0361 2f3e 9ebc 5a3e
00000010: 5d09 b13d 2a52 003e 16eb 403e db51 473d
00000020: f4f9 7dbd bbba 973c b844 083e 7d48 673d
00000030: 3bcc 30bc 53c9 45bc 3b97 b0bd 69b5 45bc
00000040: 4460 90bd 220c 113d ee44 bbbc 0c5d d93d
00000050: 1670 23bd 2897 a53d e776 513e 02f3 353e
00000060: 5aa4 ccbc c5e4 47bd 8481 45bd 12d0 1bbe
00000070: 7738 a33d 901d 063e f8ef 1a3d 4880 db3d
00000080: 8c7c 993c 4b8b 11be a79c 15bd 04b5 61be
00000090: d626 4cbe 9e72 143e fdaf f5bc 4935 f3bd
000000a0: de5f 293e b477 bd3d da7e 3dbe d88f fd3d
000000b0: 6b77 b83d ff88 9ebd 2288 693d 8cad b8bd
000000c0: 3409 c53c dea7 cdbd 3901 eb3c 3584 1bbe
000000d0: d98f 5ebd 649e c93d 4aef 45be 8c29 1fbe
000000e0: ccfa 1b3c bd02 063c f3b6 113e 02e0 e3bc
000000f0: e912 e6bc d301 9b3d 4d9b a53d d19e eabc
00000100: 6756 a6bd 9bf9 0a3e 5018 e4bc 6f6d 3ebd
00000110: c1c8 293e e16f b93a 93d0 b6bd 77ac bdbd
00000120: a59b 86bd 0052 2d3e 48db 46be 0233 323d
00000130: 19d1 45bc b106 cb3b 3ae7 3ebd e329 a6bc
00000140: 2dbd 5c3d b82e ae3c 8c45 cdbd 07f1 0fbe
00000150: 0881 25bc 57be 66bd dda7 93bd a69e a23d
00000160: 7c4f 463e c363 eb3b e13b 183e 9c5a f7bd
00000170: 3e91 5fbd b2d2 ca3d 1d42 763d a23a 923d

layer4.weight_ih_l0_reverse f4 [96, 64]
-0.042056583 -0.05802858 0.012369348 0.071469754 -0.08860691 -0.24792692 -0.14821692 -0.16138157
-0.19883394 0.046213888 -0.17347604 -0.07537477 0.11593412 -0.10546773 0.06343306 0.05149205
0.13699104 -0.004908059 -0.06942623 -0.04163899 -0.043492638 0.19746661 0.28397083 -0.12292323
0.04078087 -0.115024626 0.22489345 -0.0030271246 -0.06586246 -0.045206875 0.020575672 0.1592897
0.06924097 -0.12571083 -0.11023895 -0.13747308 -0.20458758 0.21475388 0.16825105 -0.0009100382
0.105680846 0.0020225788 0.013169277 -0.04699984 0.13900486 -0.05620795 -0.07578894 0.25959206
0.064837955 -0.008331118 -0.08594398 0.043339938 -0.014654206 0.091255695 0.085476816 0.022410883
0.25276732 0.099775866 -0.042907543 0.09311627 0.0770901 -0.1291758 0.076427594 0.2848151
0.10659203 0.13165171 -0.049486417 0.018147549 0.09580916 -0.014256427 0.07106513 0.083150335
0.00012559972 0.11818391 -0.03563313 0.15775223 -0.18559709 0.15645114 0.20134173 -0.104822494
0.08555306 -0.02901353 -0.023438588 0.18157095 -0.0028586637 0.032851435 0.08628433 0.263529
0.110570006 -0.011411468 -0.12784202 0.010045046 -0.10620541 -0.050037324 0.15338595 0.06764156
0.14868726 0.1658473 0.1519773 0.09665389 -0.1657678 0.0567508 0.06624648 0.05575509
-0.093272656 -0.1558817 0.086978614 0.026013507 0.23647262 0.24446096 0.09106081 -0.07471854
-0.063286394 0.015032669 -0.122936755 0.25337598 0.1578236 -0.18683423 0.07843531 -0.040887445
-0.06633307 -0.14718239 -0.15505327 0.035294924 -0.16858792 0.03295466 -0.0141136935 0.17078362
-0.1478668 -0.02318209 0.05070641 -0.14333646 -0.11171882 0.13647372 -0.05181863 -0.23036653
0.06610509 0.025779638 0.14099129 -0.14211214 -0.1754894 0.16552442 -0.10201394 0.21370898
-0.13747329 -0.17874846 -0.014478874 -0.12207724 0.13237573 0.16207519 0.108164616 -0.15965745
-0.10922763 -0.036646742 0.026992118 -0.017861253 -0.03540105 -0.24042577 -0.20845076 0.04315974
-0.020179266 0.11557164 -0.013735364 0.1883753 0.15958135 -0.13286927 -0.08544116 -0.03211623
-0.040455416 -0.16056028 0.14327385 0.03545624 0.18161592 -0.06966993 -0.13509241 0.03304201
0.100022785 0.15212965 -0.11519758 0.037655592 -0.015861321 -0.02018854 0.08250868 0.010832982
-0.14734137 0.07865984 0.048859928 -0.2073325 0.06802804 -0.107154064 -0.18062639 0.068017036
0.25746927 -0.0324352 0.058407217 0.23169123 -0.15994486 -0.023029549 -0.0068515 0.18519622
-0.07763937 0.10241808 0.08207901 0.021078255 0.053189445 0.0057756817 0.053511243 -0.18024242
-0.1589153 -0.009194709 -0.046714555 -0.04926733 -0.11624695 0.013370431 0.07238856 -0.09986687
0.034298826 -0.15089281 -0.10471284 0.16424519 -0.0022751756 -0.13886657 -0.053961303 -0.019006718
-0.12479237 0.020318463 -0.1228507 0.030000338 0.023809025 0.23382531 0.03612571 0.024119437
-0.008068928 -0.20196939 -0.122011036 0.101973206 0.32664946 0.058493704 -0.059475303 0.01051839
-0.17920125 -0.17565319 -0.0812969 0.010868736 0.14531271 0.19624108 0.0028959347 0.098054245
0.19323987 0.02751557 -0.033261295 -0.031581238 -0.04411965 0.0975539 0.17355135 -0.02840626
00000000: 8643 2cbd 60af 6dbd cea8 4a3c bc5e 923d
00000010: 8a77 b5bd 8ee0 7dbe 2dc6 17be 3641 25be
00000020: 209b 4bbe c64a 3d3d b4a3 31be 165e 9abd
00000030: de6e ed3d 77ff d7bd 31e9 813d 54e9 523d
00000040: 6147 0c3e c8d3 a0bb 572f 8ebd a58d 2abd
00000050: 5625 32bd b034 4a3e a064 913e 2dbf fbbd
00000060: d709 273d 0892 ebbd 784a 663e b962 46bb
00000070: e6e2 86bd d82a 39bd 508e a83c d71c 233e
00000080: 36ce 8d3d 57ba 00be f5c4 e1bd bec5 0cbe
00000090: 687f 51be 71e8 5b3e 014a 2c3e a18f 6eba
000000a0: 336f d83d 3e8d 043b f4c3 573c e782 40bd
000000b0: 4a57 0e3e 4f3a 66bd 3b37 9bbd 40e9 843e
000000c0: c3c9 843d 3e7f 08bc 6603 b0bd 3885 313d
000000d0: 3218 70bc 44e4 ba3d 780e af3d 0797 b73c
000000e0: b86a 813e 4a57 cc3d d2bf 2fbd beb3 be3d
000000f0: 6ae1 9d3d a946 04be 1286 9c3d 49d3 913e
00000100: ec4c da3d b5cf 063e 45b2 4abd 2baa 943c
00000110: 9837 c43d ca93 69bc 988a 913d b94a aa3d
00000120: 6bb3 0339 680a f23d 0cf4 11bd cd89 213e
00000130: 2a0d 3ebe ba34 203e 872c 4e3e 2dad d6bd
00000140: 7136 af3d c8ad edbc 4802 c0bc bced 393e
00000150: 6b58 3bbb 3a8f 063d d7b5 b03d 46ed 863e
00000160: 8772 e23d 2af7 3abc 05e9 02be fa93 243c
00000170: 3982 d9bd f0f3 4cbd 3511 1d3e a987 8a3d
00000180: 7941 183e e0d3 293e f09f 1b3e 7af2 c53d
00000190: 09bf 29be 8773 683d 3cac 873d 735f 643d
000001a0: bc05 bfbd 749f 1fbe d821 b23d 471a d53c
000001b0: e125 723e f953 7a3e 177e ba3d 0906 99bd
000001c0: 4c9c 81bd 954b 763c 44c6 fbbd 7fba 813e
000001d0: 839c 213e 7951 3fbe b1a2 a03d 9879 27bd
000001e0: a2d9 87bd fbb6 16be 49c6 1ebe 6991 103d
000001f0: 50a2 2cbe 77fb 063d 1f3d 67bc e7e1 2e3e
00000200: 656a 17be 5ee8 bdbc 86b1 4f3d cbc6 12be
00000210: d6cc e4bd c4bf 0b3e c63f 54bd 34e5 6bbe
00000220: 1b62 873d d22f d33c 0560 103e d885 11be
00000230: 7eb3 33be 3c7f 293e afec d0bd 87d6 5a3e
00000240: ccc5 0cbe d609 37be cd38 6dbc a203 fabd
00000250: 818d 073e 0af7 253e 6985 dd3d 3e7d 23be
00000260: bcb2 dfbd e51a 16bd 931e dd3c c351 92bc
00000270: b100 11bd 2c32 76be 1e74 55be 44c8 303d
00000280: fd4e a5bc d3b0 ec3d 4b0a 61bc 74e5 403e
00000290: 4b69 233e e20e 08be c6fb aebd 4f8c 03bd
000002a0: 94b4 25bd ea69 24be 61b6 123e 903a 113d
000002b0: 86f9 393e 1caf 8ebd aa55 0abe 0f57 073d
000002c0: bfd8 cc3d e0c7 1b3e b5ec ebbd c03c 1a3d
000002d0: 9aef 81bc 7062 a5bc 50fa a83d d27c 313c
000002e0: a8e0 16be 6918 a13d 5921 483d f94e 54be
000002f0: 4952 8b3d 9773 dbbd 20f6 38be 844c 8b3d
00000300: 03d3 833e c6da 04bd 683c 6f3d 7740 6d3e
00000310: 96c8 23be 77a8 bcbc 8c82 e0bb 14a4 3d3e
00000320: 6401 9fbd 92c0 d13d 0a19 a83d 4eac ac3c
00000330: 2ddd 593d ee41 bd3b 9b2e 5b3d 7891 38be
00000340: b1ba 22be 68a5 16bc c357 3fbd 8acc 49bd
00000350: e212 eebd a70f 5b3c 7440 943d 0087 ccbd
00000360: ed7c 0c3d a583 1abe af73 d6bd e42f 283e
00000370: 1d1b 15bb 0a33 0ebe 8706 5dbd fab3 9bbc
00000380: 2493 ffbd e872 a63c 2699 fbbd 45c3 f53c
00000390: 250b c33c e76f 6f3e 8df8 133d 2096 c53c
000003a0: 8933 04bc 10d1 4ebe ece0 f9bd 54d7 d03d
000003b0: 993e a73e 1897 6f3d 609c 73bd 5355 2c3c
000003c0: 8880 37be 6ede 33be fd7e a6bd c812 323c
000003d0: dbcc 143e 6cf3 483e b9c9 3d3b aad0 c83d
000003e0: ace0 453e 5568 e13c ff3c 08bd 545b 01bd
000003f0: ceb6 34bd 57ca c73d 72b7 313e 3fb4 e8bc
